GRU/model_gender.pth (torch, 58577 bytes, 5 tensors)

gru.weight_ih_l0 f4 [192, 6]
00000000: eac3 483d 04bc cebd 7e8b f43c c45b a2bd
00000010: 55ca a13d 2dcd bdbd fe95 cbbc 6789 883d
00000020: 4980 ffbd a386 c6bd db08 f2bc 45ad a53c
00000030: 3283 893d 4d89 eabc 4cac abbd 6ba9 2fbd
00000040: d35e 6bbd 33ef cb3d 2576 873d 828c 213d
00000050: 1833 0a3d b9c7 a6bd 5cc4 1cbc ab4c e33d
00000060: 080e 0c3d b620 6bbd 1076 99bd 367f 29bd
00000070: c1d0 18be ccbb 4c3d 2ed7 503d 1a35 fbbc
00000080: 422f 7abc bb2c c8bd dba9 5b3b 1391 bf3b
00000090: cfe2 ac3d c75e f53d 62b0 d43c 82f3 debd
000000a0: 788c e4bd 865e d2bd 18a1 bdbd 8c17 c7bd
000000b0: 6861 873d d403 abbc f37a e5bc 8a55 01be
000000c0: f050 c33d 0ac3 7bbc 983a fa3c 6433 d1bd
000000d0: 5ed9 be3d 5922 973c 9308 f1bc 4b8b 923d
000000e0: b547 ee3d f967 b23d e8ec ab3b 1591 ecbd
000000f0: a00d 143c 3e1e 57bc e19d 143e 40f1 90bd
00000100: c78b 98bd 63a5 e4bc 2dad 243d a15a 903b
00000110: 11df b63c cc66 cdbd 70ea dcbd 846e 803c
00000120: 41e6 61bd 17b4 c83d 2ff2 adba fda0 193d
00000130: 5d70 623d f7fd e23c 1c48 af3d 6490 23bc
00000140: 63d6 2b3d b16a 113c 4a26 db3d 894c cc3d
00000150: 489d a73c 8a29 b83d c381 f1bc 7b1c c33d
00000160: 7c4a ccbd 3f76 77bd 510e c63d 1e6a 7d3d
00000170: faf6 57bd 769b f2bc cf88 e53c 1e78 52bd
00000180: cc3e 0dbc 6af0 3c3d 38da d63c 2c78 d9bc
00000190: f138 603d 149d 933d 1621 ee3a 2aa7 72bd
000001a0: 1aa6 e6bd 20f0 533d a12a 873c 85dc d33d
000001b0: 792e d5bd 565d 09bd ad40 8c3d e488 b0ba
000001c0: 4bf3 f7bd e5d9 283d d66d 0c3e c7d3 44bd
000001d0: 042a 613d 783a 42bd 9aed b53d 71b1 373d
000001e0: 8775 8d3d 4ec8 adbd bac7 d93c 3cd8 003d
000001f0: e5e4 67bd 2613 1d3d 2711 fa3d d9a0 92bc
00000200: eb9e 00bd 570e 5abd 4b86 e9bc 5f18 18bd
00000210: 3368 393d 117a 82bd 6e78 753d 9b4a 623a
00000220: bf55 c8bd 0b9c b53d 02b4 90bd 69b6 513c
00000230: 3043 bebd af19 da3d 8a6b fbbd fbd2 d6bd
00000240: aa14 8cbd 2dd2 c53d 213f b1bd 9de0 a7bd
00000250: 958a abbb 4e49 9fbd 206d cd3c 8488 e2bd
00000260: c25c 3ebb d6d2 473c 2c47 dd3d 9a4a bcbd
00000270: e7e4 013c 6b55 8ebd 528e 8a3c 3247 c23d
00000280: fac3 a93d ab64 b0bd adf2 e0bd 2c38 c4bd
00000290: 49e7 49bd 6d72 ee3a 444e 023c 00fb 92bc
000002a0: 3ee9 89bd ee9c fcbc 42ff 93bd 872c c83d
000002b0: ddc3 ea3c a6ea 5b3d 1a27 ad3b a0c0 e53c
000002c0: da2c d6bd 5637 0dbe 0547 7f3c 65c6 693d
000002d0: f82b 0f3e 9150 babd f794 ed3d 8d9b 073d
000002e0: 34a6 4e3c 236f 87bd cd72 c03d 6cec 293d
000002f0: 736e 15bd 4b7a 873d ca4b e13c 8013 133e
00000300: 15cc aabd 5833 93bd a439 313d 5345 f3bd
00000310: 1cba 1a3d 38eb 50bd 6546 2c3d 583f 023e
00000320: aba2 883d de20 14be 34c4 98bd ddc1 1dbb
00000330: 3ded b3bd bec3 f9bd 9d8d 10bd 4b2e ad3c
00000340: 1582 8bbd eaf9 71bd 257c 883d 8e74 e3bd
00000350: ca71 b83d aef2 933d 3caa c13d bb55 b43d
00000360: aab4 28bd 0823 8abd da3c 0d3e 3ac6 333d
00000370: 4890 1d3e 7854 60bc dc4c 8c3d ef8e 363d
00000380: 3e9e 053d 899b ccbd 70a8 a63c 01ea 773d
00000390: d763 89bc 4a42 c53d a9d6 68bc a276 d5bd
000003a0: 6a22 43bd 5886 a3bd bde5 24bd 4ac3 dc3d
000003b0: 5ee8 a93b 79db d93d b46a b2bd 45d2 943d
000003c0: 95b5 013d be69 7fbc c6bd edbc d35f dabd
000003d0: 7a7a 923d ceef 56bd 9f5c 583d 49eb 713d
000003e0: c0a2 a93d 8536 12be 7d37 bf3d 7089 4ebb
000003f0: 91db 853d 5ea4 5f3d 6a66 ba3a 932b de3c
0.049014963 -0.10094455 0.029851671 -0.07927659 0.0789992 -0.0926765 -0.024851795 0.066668324
-0.1247564 -0.09693649 -0.029545238 0.020224223 0.06714477 -0.028629923 -0.083824724 -0.04288618
-0.05746348 0.09957733 0.06614331 0.03944064 0.033740133 -0.08143563 -0.0095683 0.11098608
0.03419307 -0.057404242 -0.07493222 -0.041381083 -0.14923383 0.049983785 0.05098646 -0.03066497
-0.015270056 -0.09774157 0.003351799 0.0058461516 0.08441698 0.11980968 0.025963012 -0.10886289
-0.11159605 -0.10271935 -0.09259242 -0.09721288 0.06610376 -0.020875849 -0.028012728 -0.12630287
0.09536922 -0.015366325 0.030545518 -0.1021488 0.09318803 0.018448995 -0.029423034 0.07155474
0.11634771 0.087112375 0.0052467473 -0.1155111 0.009036452 -0.013129769 0.14513351 -0.07077265
-0.074485354 -0.027910894 0.040204216 0.004405335 0.022323163 -0.100293726 -0.10786903 0.015677698
-0.055151228 0.097999744 -0.0013271029 0.037507046 0.05528294 0.02770899 0.08558676 -0.009983156
0.041952502 0.008875535 0.107006624 0.099755354 0.02046074 0.08992298 -0.02948082 0.095269166
-0.09975144 -0.060415503 0.096706994 0.06186878 -0.05272577 -0.029615145 0.028019337 -0.051384084
-0.008620929 0.046127714 0.026227102 -0.02654656 0.054741804 0.07207695 0.0018167819 -0.05924145
-0.1126215 0.051742673 0.01649982 0.10344795 -0.104092546 -0.033536278 0.068482734 -0.0013468531
-0.12106951 0.041223425 0.13713774 -0.04805353 0.05497171 -0.04741904 0.088832095 0.044846956
0.06907182 -0.08485471 0.026584495 0.031456217 -0.056614775 0.03834834 0.12210303 -0.017898964
-0.031401556 -0.05323633 -0.028506419 -0.037132617 0.045265388 -0.063709386 0.059929304 0.0008632333
-0.0978198 0.088676535 -0.07065584 0.012799838 -0.09290159 0.1064943 -0.12276371 -0.1048946
-0.06839879 0.096592285 -0.08654619 -0.081971385 -0.005235026 -0.07777654 0.025076449 -0.110611945
-0.0029046987 0.012196263 0.108045906 -0.091939166 0.00792811 -0.06949886 0.016913567 0.09486236
0.08289333 -0.08612951 -0.10983787 -0.095810264 -0.049292836 0.001819206 0.00795323 -0.017941952
-0.067339405 -0.030836549 -0.07226421 0.09774118 0.028657848 0.053690575 0.0052842023 0.028045952
-0.104577735 -0.1379064 0.015580897 0.05707397 0.13981616 -0.09097398 0.116006784 0.03310733
0.012612868 -0.066129945 0.093968965 0.041485235 -0.036482286 0.066151224 0.02750196 0.14362907
-0.08339707 -0.071875274 0.04326786 -0.11878457 0.037775144 -0.051005572 0.04205932 0.12719476
0.066716515 -0.14465663 -0.07459298 -0.002407185 -0.08785484 -0.12195538 -0.035291303 0.021140238
-0.068119206 -0.059076227 0.06664304 -0.111062154 0.090060785 0.07224022 0.09456298 0.08805414
-0.04118792 -0.06744963 0.13792744 0.043890215 0.1538707 -0.013692014 0.06850597 0.044569906
0.032621615 -0.099906035 0.02034399 0.060525898 -0.01677124 0.09631784 -0.014211335 -0.10423018
-0.04764024 -0.079846084 -0.040258158 0.10779436 0.005185171 0.10637564 -0.08711758 0.07266668
0.03166731 -0.015589176 -0.029021155 -0.10662808 0.07152267 -0.05247479 0.052822705 0.059062276
0.08282995 -0.1427861 0.093367554 -0.0031515025 0.065360196 0.054600112 0.0014221196 0.027120387

gru.weight_hh_l0 f4 [192, 64]
00000000: 8c06 863d 000c f6bc 8859 ecbb a77b f0bc
00000010: c439 88bd 7c02 c03b 682e a9bd 1538 10be
00000020: e550 74bd 889c 5abd caf1 81bd 8271 8b3d
00000030: b602 74bd b83e 36bd 9e04 983d f886 083e
00000040: 3e02 b83d b5e2 db3a 378d e03d 29eb 393e
00000050: 8bbb e03d 1953 703d c2ac 0d3e 70a6 ccbb
00000060: 267e 913d 2878 21be f5c3 af3d d96c 8dbd
00000070: 18a2 d03d f4f0 943d 0400 393e 992d 933d
00000080: c880 b2bb 8a97 633d bc66 d63d fd3a 15be
00000090: cfd0 bdbd fe40 573d dc6b 3b3d cc56 1fbe
000000a0: 2825 00be 4254 fb3d 5324 053e ae14 4a3d
000000b0: a579 e73d b834 86bd fbcf 183e ef26 1dbe
000000c0: 2eec 943d 2987 c0bc e8d5 94bd f75b be3d
000000d0: da98 29be a3c7 e4bb 493b a7bc 40a8 1ebd
000000e0: e4ed 713c e4a6 3bbc ff9b 89bc c73a 783d
000000f0: 8af6 a2bd 5130 343e 6a91 b1bc 894d 233a
00000100: 033d 41bd 6b71 213c c53b f3bd 664b 39be
00000110: 52d6 023e 362d 473e 18cd 5d3b 3976 17be
00000120: 2690 323b 117d 2fbd adc6 1e3b 5d42 343e
00000130: 228c 05bd d58b a33c fe10 56bd 1ba3 373e
00000140: c239 fc3c 7b3d 3f3c 7307 5d3d 4c72 1a3e
00000150: 6cbb 283d 56ae b23c aa03 3e3e 0a73 823d
00000160: 4a40 f13d 6191 f33c a7b5 463d 7415 9dbd
00000170: a21c 96bd 4454 0bbd 4dec 273d 347e d1bd
00000180: 67fa 383e 39ff 913d 271c b13d a8c3 9bbc
00000190: 7d7b 4b3d 56d3 7fbc 10d4 143e f1a9 97bd
000001a0: bef5 2bbd 7cb0 ec3d 640a b33d 49cf 0e3e
000001b0: 6593 55bc dd10 00be 860e db3d d68e 6a3d
000001c0: e8aa 003d f2c8 e83d 2245 253d 625b 103e
000001d0: 2000 03be ee0c 3b3e c3b5 8cbd a45d 243e
000001e0: d93a 9a3d 1667 113e 88eb 323d 95eb 02be
000001f0: c4ee efbc 9625 d23d 5001 0abe 67b0 2ebe
00000200: dfce 103d fcd1 fdbd 8c00 b43d d71b b0bc
00000210: 759f 343c d926 89bd 82b1 003e c1c2 0bbe
00000220: 1006 f43d 23a2 723d 557e 6c3e 77a7 2e3e
00000230: e016 99bd ba6d 39bd 80e8 973d 4621 f13c
00000240: 8099 8cbd e7f8 c03d 5fbc 273e cf86 97bd
00000250: ff0b efbd b1c9 9f3d 5771 34bd 25fa b3bc
00000260: 7a6d 3cbd 6ea3 d9bd f859 b4bd 7202 2b3c
00000270: de3e 363d e0a7 c5bb 58ec ac3d 2f02 353b
00000280: 17e1 c63c cc7a d93d ec16 5ebd 9d44 b6bd
00000290: c75a 98bc b220 e83d b6f4 4d3e 19b8 2ebe
000002a0: e53a 30be 736d 033e dea5 25bd 7d73 11bd
000002b0: c56c c63d e9bd d83d 685d 3b3e e3ab 463c
000002c0: 3518 0c3e 852d 8a3d 5f0a 173d 9007 d1bc
000002d0: c1ff 953d 70f7 13bc 94af a43d e7c5 73be
000002e0: c55c 033e 013c f53d 1d37 863d 70d0 be3d
000002f0: 0b36 a3bd a20f 1a3e 81fb 223e 0d6e 4bbe
00000300: 0c15 c7bd a257 a53b 4a46 12be a3c9 92bd
00000310: ac74 c33d a3f6 ba3d f104 a23c a36e f9bc
00000320: 1fa4 9e3c b5ec b73d a72f aabd c1e2 af3d
00000330: af62 e1bd 40f5 dbbd fc41 d4bd 6d74 8bbd
00000340: eec5 043e 6eda 223d 25b2 7d3d 14fc 0f3d
00000350: 8379 c4bb efd1 c2bd 6729 2dbc 93d8 c9bc
00000360: b151 3a3d cf57 0ebe 8195 613c 571f 46bd
00000370: 7892 67bd d501 03bc 3bf5 083d 1e91 4abd
00000380: ac4c eb3d ba82 bfbc 11fa 7a3d d4ac 1b3d
00000390: 970e 43bc bf8a d63b 3ebf c13c 66ca 0bbe
000003a0: 20d4 febc 2b58 053e b251 fd3d 7b36 dc3c
000003b0: e032 093e 9a93 21bd 4cf6 ec3d 4385 923c
000003c0: 37a6 a13d 4523 de3c 693d 33be d862 3b3e
000003d0: b03f 17be 641c 6abd 1fec 12be 3eb2 bb3d
000003e0: 0096 dc3d 3e96 263a 31c7 99bb 8d16 fb3c
000003f0: 9cb1 9d3c cb75 f83d 80b4 333c 03db 0dbe
0.065442175 -0.030035019 -0.0072128214 -0.029355837 -0.06651643 0.005859671 -0.082608044 -0.14083894
-0.05964746 -0.053371936 -0.06344946 0.06808759 -0.059572898 -0.044493407 0.07422756 0.13332736
0.08984803 0.0016775938 0.109644346 0.18156113 0.10973271 0.058672998 0.13835433 -0.006245427
0.07104139 -0.15768492 0.08582298 -0.06905527 0.10187167 0.07272521 0.18066412 0.071864314
-0.005447481 0.05556444 0.10468814 -0.14573283 -0.09268343 0.052552216 0.04575716 -0.15560454
-0.12514174 0.1227193 0.13002138 0.049336128 0.11302499 -0.06553024 0.14923088 -0.15346883
0.0727161 -0.02350195 -0.07267362 0.09294885 -0.16562214 -0.0069818064 -0.020414012 -0.038734674
0.01476619 -0.011453364 -0.016798018 0.06060293 -0.0795718 0.17596556 -0.021675784 0.000622951
-0.047177326 0.009853701 -0.118766345 -0.18095168 0.12777069 0.1945084 0.003384417 -0.14791192
0.0027246564 -0.042843882 0.0024227307 0.1760344 -0.032604344 0.019964138 -0.0522623 0.17933314
0.03078926 0.011672373 0.053962182 0.15082663 0.041194364 0.021811645 0.18556085 0.06369598
0.1177984 0.029732408 0.04851308 -0.076701075 -0.0732968 -0.03401591 0.04099684 -0.102291495
0.18064271 0.07128758 0.08647948 -0.019014195 0.049678314 -0.015614351 0.1453402 -0.074054606
-0.041982405 0.11557099 0.08742216 0.1394626 -0.01303563 -0.12506433 0.106961295 0.057265125
0.03141299 0.11366452 0.040349133 0.1409736 -0.12793016 0.18266651 -0.06870606 0.16051346
0.075307555 0.1419948 0.04368165 -0.1278518 -0.029288657 0.10261075 -0.13477063 -0.1705948
0.035353538 -0.12393567 0.08789167 -0.02149765 0.011024346 -0.06696863 0.12567714 -0.13648511
0.11915219 0.059236657 0.23095067 0.1705607 -0.07475066 -0.04527066 0.07417393 0.029434811
-0.06865215 0.09422474 0.16380452 -0.073987596 -0.1167221 0.078021415 -0.0440534 -0.021969864
-0.046002842 -0.10626875 -0.08806223 0.010437595 0.04449355 -0.006031975 0.084435165 0.002761971
0.024277253 0.10619125 -0.05422108 -0.08899806 -0.018597974 0.11334361 0.20112881 -0.17062415
-0.17209966 0.1283472 -0.040441386 -0.03551053 0.09688715 0.105830975 0.1829735 0.012125942
0.13681109 0.067469634 0.036875125 -0.025516301 0.07324172 -0.009031162 0.08041301 -0.23805963
0.12828358 0.119743355 0.06553481 0.093171 -0.07969292 0.15045026 0.15916254 -0.198662
-0.09720811 0.005045847 -0.14284626 -0.071673654 0.09543738 0.091290735 0.019777747 -0.030448264
0.019365368 0.08980695 -0.0830987 0.08588172 -0.110051505 -0.10740137 -0.10364148 -0.06809316
0.12966129 0.039759092 0.06193747 0.03515251 -0.0059959306 -0.09512698 -0.010568953 -0.024639403
0.045488063 -0.13900684 0.013768555 -0.04836973 -0.056536168 -0.007996042 0.033436995 -0.0494548
0.114892334 -0.023377765 0.06127364 0.03800662 -0.011905334 0.0065473015 0.023650762 -0.13651428
-0.031107008 0.13021915 0.12369098 0.026881447 0.13398314 -0.039447404 0.11570415 0.01788581
0.07893031 0.027116427 -0.17503895 0.18299425 -0.14770389 -0.05715598 -0.14347886 0.091648564
0.10770798 0.00063547853 -0.004692935 0.030650401 0.01924973 0.12131842 0.0109683275 -0.13853078

gru.bias_ih_l0 f4 [192]
00000000: 460e ec3d a314 b93c 01b7 03be 624c ee3c
00000010: 6e1d e13d 95df 503e 7aec 243e 1697 f23d
00000020: faee 94bd 3a42 8c3d c294 69bc 2bad 743d
00000030: 9284 323d 9ea4 563d 3f53 a4bd 19a5 863c
00000040: 328c 183e 77e4 d33d 5296 a63d 32b9 b8bc
00000050: 2306 84bd 2929 a7bb 7e00 4fbc 3f20 193d
00000060: 0f77 0b3e 0cb3 b03d 1555 b33d dbf3 fdbc
00000070: 8854 c93c dfd3 fa3d 6d2e eabb 1a77 c2bc
00000080: 2bf2 0d3e 9a98 763c 2616 083e 84cc e73d
00000090: ce5a 833d 4960 b3bd 3135 9a3c 5f59 35bd
000000a0: 2d53 c93d 051e 5fbb e94e 2abd 0035 2b3e
000000b0: 8f49 203e 1c92 a93d fa37 143e 9047 f63d
000000c0: 7dd5 873d f75f 24bd 34d6 973c c885 28bd
000000d0: f656 213e f1d9 fd3d 308f 513d 2dfd c03d
000000e0: 2fa3 3c3e a119 853d 6e54 e33d 7b72 5b3d
000000f0: 3fd9 8d3d 5126 8bbc 0c8b c43d 4aa0 64bc
00000100: a720 bb3b f45a 92bc 80ea 093d c125 68bc
00000110: a7a5 36bd 69f1 2f3d f327 81bb fd12 7ebd
00000120: 6e7b 70bd a257 11bd 0b87 10bc da81 25be
00000130: 1731 7b3c 0f3e 0fbe c334 8d3e 416f 943c
00000140: 0a87 0ebe da55 c6bd c559 1abe 087a f93c
00000150: 2f9b 25be ad3e 9abd 2fae ab3d 7984 2d3d
00000160: b78f 55bc fcad 273d 879e adbd 9203 1bbe
00000170: c80b a03c 00a1 f33c aedf d73c 293b 5c3d
00000180: 5b93 95bd 4a82 0d3c d26d 823d fa16 cabd
00000190: f129 2d3e 1364 ecbd e5cb 1abd 42e9 18bc
000001a0: 7381 d7bd 56a8 21bd 86e1 ddbd c6e4 3abe
000001b0: 44ad 38be 424e b53d d149 273e 4163 bcbc
000001c0: b4c9 293b c576 38be 3b43 e6bd 0d5a 19be
000001d0: 903b f2bd a262 a93d 94f9 1e3d 5f5e dc3d
000001e0: e37f a43d 7ad8 f0bd 1c79 03be c769 163e
000001f0: 7c93 81bd c23f 27be e621 2e3d 4c2c 733d
00000200: e4ab dabd dd89 533d bc46 bdbd 8a25 bbbd
00000210: 3c9d 0e3e 523a d63d 4a5f 713d 31db a53c
00000220: 069f 25bc edfe 1e3e 5d36 13bd f7b8 7c3d
00000230: 1063 03be c1ed c8bd 5ffc e2bc c50d 083e
00000240: bb84 093e 5ddc c6bd aa2f 863d 2832 f83c
00000250: ef60 0c3e f710 bcbd 4c71 373e 7818 373b
00000260: b76e 3e3e 4d68 af3c 959f 33be d5bb 82bd
00000270: a85e 6cbd 99d3 a93d 5d21 8e3d d559 33be
00000280: f50a b63d b3c8 a83d cef9 323d 69dc a8bd
00000290: 807b 6a3d 27e2 31be 8e67 0fbd db21 edbc
000002a0: 81e3 a83d 92a1 a03d 8fc6 123e e15c 8fbd
000002b0: 82f7 463d fe88 24bd d625 e53c a820 05be
000002c0: eafa dcbc 5c13 193e 3810 f1bd c9e6 f33d
000002d0: 4b27 663c 419d c23d fb22 16be 91d6 7d3d
000002e0: 0e90 ee3c ad0c d23d da81 c23d edd6 52bd
000002f0: 03f6 263e e527 25bd fbc5 44bd 32b3 3abd
0.1152616 0.022592848 -0.12862779 0.029089157 0.109919414 0.2039779 0.16105834 0.118452236
-0.07272144 0.06848569 -0.014256658 0.05973546 0.04358346 0.052403085 -0.080236904 0.016436147
0.1489723 0.103463106 0.0813414 -0.022549246 -0.06446483 -0.005101342 -0.012634395 0.037384268
0.13619636 0.086279005 0.087564625 -0.031000068 0.02457644 0.122474425 -0.0071466477 -0.023738433
0.13861911 0.0150510315 0.13289699 0.11318305 0.06413804 -0.08758599 0.018824192 -0.044274684
0.09830318 -0.0034044993 -0.04157916 0.16719437 0.1565306 0.08279821 0.14474478 0.12025368
0.066325165 -0.04013058 0.018534757 -0.04114321 0.15755829 0.12395085 0.051161945 0.094232894
0.18421625 0.06499029 0.11100088 0.053575974 0.06926202 -0.016986044 0.095968336 -0.0139542315
0.0057106796 -0.017865635 0.033670902 -0.0141691575 -0.044591572 0.042954836 -0.00394153 -0.062029827
-0.05871146 -0.035483964 -0.008821259 -0.16162816 0.015331528 -0.13988517 0.27579316 0.018119456
-0.13918701 -0.09684344 -0.15073307 0.030453697 -0.16172479 -0.07531486 0.08382832 0.042362664
-0.013034753 0.04093741 -0.08477502 -0.1513808 0.019536868 0.029739857 0.026351776 0.053767357
-0.073034965 0.00863702 0.06368603 -0.09867664 0.1691053 -0.11542525 -0.037792105 -0.009332957
-0.10522737 -0.03946718 -0.10834031 -0.18251333 -0.18034846 0.08852817 0.16336752 -0.022996547
0.0025907578 -0.18014057 -0.11243292 -0.14975758 -0.11827767 0.08270766 0.038812235 0.10760187
0.08032205 -0.1176004 -0.12839168 0.14688788 -0.063269585 -0.16332915 0.042512797 0.059368417
-0.10677317 0.05164515 -0.09242007 -0.091380194 0.13927168 0.104603425 0.058928765 0.02024612
-0.010108715 0.15526934 -0.035940517 0.061699834 -0.12830758 -0.09810973 -0.02770823 0.13286503
0.13429539 -0.0971 0.0655206 0.030297354 0.13708852 -0.09182923 0.17914313 0.0027938168
0.18596922 0.02141204 -0.17541344 -0.06383482 -0.05770746 0.08292312 0.06939957 -0.17514737
0.08888809 0.08241405 0.043695264 -0.08245165 0.057246685 -0.17371427 -0.035010867 -0.028946808
0.08246518 0.07843317 0.14333557 -0.07000137 0.048575886 -0.04016971 0.027972143 -0.13000739
-0.026975114 0.14948791 -0.117706716 0.11909253 0.014047454 0.0950265 -0.14661781 0.061972205
0.029121425 0.10256324 0.094974235 -0.0514745 0.16304784 -0.04032125 -0.04804037 -0.04558105

gru.bias_hh_l0 f4 [192]
00000000: d5a9 c63c 697d f53d 755a 673d e266 0a3e
00000010: c7ec a8bd ada7 4b3e 835b f9bc a50a 94bc
00000020: 7684 ebbb c539 d33c 4da2 9cbd 474d 343c
00000030: 5143 0c3e 5bca 7cbc 7641 9fbd 1825 64bd
00000040: 5859 cfbc 51e1 143e e8d6 40bd 3753 86bc
00000050: 6da6 56bd 5b55 85bb a410 a4bd a639 023e
00000060: fc0a 06bc 6508 5e3d 441e 52bd f3ca 043e
00000070: 1b39 f13d 7aea 51bd f4fc 713c fee4 3d3d
00000080: 6fa9 7dbd cefb 913d f643 d8bb addc 9dbd
00000090: c473 163e b558 50bc 3035 413d 8d19 313e
000000a0: f782 bbbd d359 eebd deff 193d 7d4a 38bd
000000b0: d12d 8bbc f88c aabd 8e15 283e a9ae 90bc
000000c0: 46d5 233d efeb ea3d 29cb 58bd c760 f63c
000000d0: 0635 233e 43ba 823d ee9e a83d 397e d23d
000000e0: 67e5 4c3e ae4b 273e b89b 7fbd 8528 36bd
000000f0: 1c76 42bc 5432 b4bc b698 d7bc d82e d53c
00000100: bc18 dc3c 8a62 79bd 22cf a13d f07d 463d
00000110: 6651 05bd 5a76 ab3c c0f5 44bd f50e 89bc
00000120: 3a2f 7cbc dd36 07be 498d 83bd e930 cc3c
00000130: 541f 6fbd fab2 f43b 59e3 763e 18d7 dc3d
00000140: 9dbc f0bd 7cb7 37be e232 b53c e66e cd3d
00000150: 9d9d b8bd e965 78bd 2941 883d 62a1 72bd
00000160: 8bda 5639 caa3 4a3c deff b13c 4a40 7dbd
00000170: 867a 793d 75c9 39bd a427 51bd cf9b f8bc
00000180: b17a 96bd 6e3a 38be 4ed9 8abd 3cbe a63c
00000190: 82bb 47bd 22e5 423d c95c b0bd a7f0 f53b
000001a0: 1893 e6bd 029d 5c3d b824 37be abfa 513c
000001b0: 448b d43c 8b44 213e 9384 233e 381b 14be
000001c0: 439b 643c 064c 393d cf8d 69bd 81b1 b0bd
000001d0: d9eb f7bd 0fe1 a8bb 9ce6 da3c 496e 8a3c
000001e0: f448 38bd dc8b 13bc ffb8 503d 1ea9 013e
000001f0: a729 28be 76d1 9abc e327 a33b 7177 98bc
00000200: 915e c5bd 7405 f4bd 5c5f 173d 6a26 b5bd
00000210: 2e8e 303d 35c2 f83d c700 0e3e b21d 05be
00000220: 2fee c43d 1e33 29ba 1ab8 8abd fad9 2d3e
00000230: 3163 15be a035 03be 4baa 9bbd 42ba 703d
00000240: cbaf 0c3e a0de aebd 574e 91bd d4f9 a9bb
00000250: 779b d33c 92fd 4cbc 04ce 4ebd 2e3b 2c3e
00000260: 7cb6 97bc b737 24be b293 babd 0b24 81bb
00000270: 7304 0fbc 5e58 c03d 1153 1c3e c652 cabd
00000280: 3458 ad3d bfab a23d c2a0 bd3d c78f 37bc
00000290: fea0 533c c1ea 0c3d e75d 4e3d 5072 fa3a
000002a0: b9d3 02bb 1dcc 033e d5f4 0f3e 83df 193e
000002b0: 43e1 373d 85b6 bdbd c449 ed3d 4f50 efbd
000002c0: 06c5 8c3d d10d 8e3d ac7e b7bd f32f bb3d
000002d0: 2a73 73bd 0104 543d 75cc c0bc c9cb 223c
000002e0: 9bb6 aa3d 6667 eb3d 3f68 a23d 1523 17be
000002f0: bf72 733d d5cc 71bc b904 873c 655b eabd
0.024250904 0.11986811 0.05648275 0.13515809 -0.08248287 0.19888182 -0.030439144 -0.018071482
-0.0071874214 0.025784383 -0.07648144 0.0110047525 0.13697554 -0.015429105 -0.077761576 -0.055699438
-0.025311157 0.14539076 -0.04707995 -0.016397102 -0.05240481 -0.004069013 -0.080109864 0.12717304
-0.00818133 0.054207224 -0.051298395 0.12968044 0.1177847 -0.051249005 0.014769781 0.046360962
-0.061929163 0.07128106 -0.0065998985 -0.07708106 0.14692599 -0.012716462 0.047169864 0.17294903
-0.09155839 -0.11638226 0.03759753 -0.044992913 -0.01698962 -0.08327669 0.16414472 -0.01766141
0.039998315 0.11470782 -0.052928124 0.030075444 0.15938196 0.06383183 0.082334384 0.10277981
0.20009385 0.16337463 -0.062404364 -0.044472236 -0.01186898 -0.021996655 -0.026317935 0.026023313
0.026867263 -0.06088499 0.079008356 0.048459947 -0.03254833 0.020930458 -0.048085928 -0.016730765
-0.015392119 -0.13204522 -0.064234324 0.024925666 -0.058379486 0.0074676247 0.24110164 0.107832134
-0.11754725 -0.17941087 0.02211899 0.10030918 -0.09014437 -0.060644064 0.06653053 -0.059235938
0.00020490044 0.012368152 0.021728452 -0.06182889 0.060907863 -0.04535814 -0.051063195 -0.030347733
-0.0734762 -0.17991039 -0.06779729 0.020354383 -0.048762806 0.0475818 -0.08611447 0.0075054946
-0.11258525 0.05386067 -0.17885101 0.012816112 0.025945313 0.15748803 0.15968542 -0.14463508
0.013953033 0.045238517 -0.057020005 -0.08627606 -0.12105531 -0.005153782 0.026721291 0.016898291
-0.04499145 -0.009005513 0.050957676 0.1266217 -0.16422139 -0.018898707 0.00497912 -0.018611642
-0.09637178 -0.119151026 0.036956176 -0.088452175 0.043104343 0.12146417 0.13867484 -0.12999609
0.096157424 -0.00064544554 -0.06773396 0.16977683 -0.1458862 -0.12813425 -0.0760084 0.05877138
0.13738935 -0.08538556 -0.0709502 -0.0051872525 0.025830967 -0.012511628 -0.05048944 0.1681945
-0.018519633 -0.16036879 -0.09110202 -0.0039410642 -0.008729088 0.09391855 0.15266062 -0.09879069
0.08464089 0.07942914 0.09259178 -0.011203713 0.0129168015 0.034403566 0.05038252 0.0019107554
-0.0019962622 0.12870832 0.1405824 0.15026669 0.04489256 -0.092633285 0.11586335 -0.116852395
0.06873517 0.06936229 -0.089597076 0.09140005 -0.059436 0.05176163 -0.023534993 0.0099362815
0.083356105 0.11494331 0.079300396 -0.14759476 0.059435602 -0.014758308 0.016481744 -0.114432134

fc.weight f4 [1, 64]
00000000: 212b 66bc 64d6 94be 2ed7 0f3d aaf8 bcbe
00000010: 6d30 b43e 0f53 143f b877 6d3e 293d dabd
00000020: c33e a9bd 6953 9c3d 7ac6 393e f419 2b3f
00000030: 4dac b7be 7aec f9be fbd5 253f 256e ef3e
00000040: 6ab9 eb3d d8cc e53c 78e0 c5bd 8482 d33e
00000050: bca9 663e 4b4c 4bbe 433f 023f 863a f83e
00000060: c2d7 9a3e ae1d ecbe 98a0 cfbe ab7b 82be
00000070: 2293 953e 5191 943e eb37 0f3f 5ffc a8be
00000080: 3487 d53e e3ce 5f3e 7ba4 b23e b991 61be
00000090: 0a1c b3be b105 843e 5434 013f db93 8cbe
000000a0: 779f 3ebe 996b d43e d0fa a43e 0714 e7bb
000000b0: ba97 db3d 3cf8 043f b43f 323f fbd7 b7be
000000c0: 349a 0c3f 8dbf da3e 1837 44be e97f e03e
000000d0: 4cbd 8fbe 007d e93e f8d6 f4be 05cb 393e
000000e0: b0f6 053f 7a20 9a3e 05ca c23e c921 d7be
000000f0: 02c2 0d3c 5a6d 913e 0954 c83e c5a0 c7be
-0.014048369 -0.29069817 0.03511732 -0.36908466 0.35193196 0.5793924 0.231902 -0.106561966
-0.08263924 0.07633097 0.18142119 0.66836476 -0.35873643 -0.4881323 0.64779633 0.4676372
0.11509974 0.028051779 -0.09661955 0.41310513 0.22525686 -0.19853322 0.5087778 0.4848215
0.30242735 -0.46116394 -0.4055221 -0.25484976 0.29213816 0.29017118 0.559447 -0.33005044
0.41704714 0.21856265 0.34891114 -0.22028245 -0.3498233 0.25785592 0.5047047 -0.27456555
-0.18615519 0.4148834 0.32222605 -0.007051948 0.10722299 0.51941276 0.69628453 -0.35906968
0.54922795 0.42724267 -0.19161642 0.43847588 -0.2807411 0.4560318 -0.47820258 0.18143852
0.5232954 0.30102903 0.38044754 -0.42017964 0.008652212 0.2840374 0.39126614 -0.38989845
