GRU/model_hold.pth (torch, 58553 bytes, 5 tensors)

gru.weight_ih_l0 f4 [192, 6]
00000000: ce81 053e a34a e5bd 7411 713d 1b19 01be
00000010: 19db 80bd 9e00 16bb c935 e9bc b905 fe3d
00000020: 2252 e63d 9bd3 d63d f7ac 9bbd 2a68 c13d
00000030: d76e 683d ed27 74bd 72a0 1abe f9ad d1bd
00000040: 4531 eebc 426d dc3c 739f fd3d 10ac c9b9
00000050: 30a6 eb3d 442e 0f3b f0dd babd 620e 003e
00000060: 0b61 c63d 30f5 4f3d 007d ffbd da1d f3bd
00000070: 2e17 9abd e3f9 693d f8e2 78bd 62b0 2dbd
00000080: 7815 09be 2375 fa3d f562 12bc 2bfe 5e3d
00000090: f25a 26bd ac50 833d b7cd 9c3d ee31 fd3d
000000a0: 449b b63d d1b7 e1bd 63cf fabd 2eb4 e73c
000000b0: 2d8a 6b3d 73cc 993d 9276 933d ba77 bebd
000000c0: 4abd c73d 8a13 d2bd c303 eebd 95eb a6bd
000000d0: 215a c7bd 45f5 60bb 8494 34bd b626 e33c
000000e0: 8ce9 d43d b663 5f3d 329d a33c 8abf d1bd
000000f0: b8c3 ae3d 1d0a bf3d cafb e4bd cc08 fa3d
00000100: e064 5a3d 72db b7bd 7ebb 7e3d 4bbe 9dbd
00000110: d4a8 cd3d 44db bb3d fa9e 0f3d 83b2 32bd
00000120: da99 d03d 8304 c4bd f037 05bd 1575 2f3c
00000130: 18e1 943d ac65 b4bc 1696 9bbd aa05 db3c
00000140: ae5a d6bd 3fad a5bd 5695 fc3d f990 81bc
00000150: 163f 293d 45b2 be3d c21c dcbd d5ee a43d
00000160: ca01 91bd 898a af3d 1397 ecbd 3dd9 93bc
00000170: 79bb bc3d 707c 71bd 0b5f 683d 67f6 11bd
00000180: 482b f5bd 9f2a 87bd 0471 a6bd 1c8a 943d
00000190: 3318 8a3c ef05 cabd 70ca 45bd 7c71 a43b
000001a0: 7188 acbd eb4e c03c ebc6 b9bd 2a3e 993d
000001b0: 32d3 db3d 3124 a5bd b121 f23d 60c3 b5bd
000001c0: 2a1c d03c ab7e d83a c43a 023e d786 2c3d
000001d0: b3a1 5d3d 2805 c7bd 69e3 783c 2dcb a1bd
000001e0: 3fff 12bd 7119 f6bc d233 a9bd 7c92 74bc
000001f0: 7a74 1abd fe73 363d cb34 213d 8177 883c
00000200: 9bf0 febd d6e8 f83d da2a 903d 6ef4 8f3c
00000210: c7a1 64bd 19ac c63b c4b3 25bd 11dc 0e3d
00000220: 96e6 8c3d 7b8c f5bd a9ab aabd 511b 0a3d
00000230: 430b 143e 9b4d 8ebd c344 3bbd 5bff c53d
00000240: 0057 143e d887 c13d dfa2 273c 24ce cdbc
00000250: c8b6 233d d227 9d3c 161f 6a3d ad2d a43d
00000260: 9b0f 2a3b f4d7 773c fede 90bd dcc9 8c3b
00000270: 8320 ed3c fe7c febc 40df 5ebd 123c 3e3d
00000280: 8b84 bebd f937 c43b 598d ea3d b567 42bd
00000290: b0a8 a8bd 317d 8dbd 8fa7 2e3d 7713 f1bc
000002a0: 311c 6c3d 2c7e 423c 505b 75bd c451 62bd
000002b0: eb84 203d 3cd0 44bb a23d 9abd 4bb7 733d
000002c0: 1747 c9bd a8e7 0a3c df5b a63d 4cf8 c33d
000002d0: 84d2 a03d 8fab d1bb c127 f5bc c8d3 113e
000002e0: 92b6 8e3c f3e2 bfbd 6518 97bd 5489 afbd
000002f0: e7fc 93bb 807e 80bd c2df 843d 2d5f b43d
00000300: 3dd1 3f3d 17db e5bd 88bd a43d d2d3 94bd
00000310: 6490 cd3d f27e 8dbd cef4 673d 992f 953c
00000320: fe6a 443d 8bc8 e73d ddd0 013d 14e3 8bbd
00000330: ab83 abbd 4182 71bd 90e2 b5bc 127f ab3c
00000340: 57e6 843c d311 bc3d d44d 54bd 1f9c da3d
00000350: 8e0c 7e3d e233 eab9 b653 02be 01d0 8d3d
00000360: 7a88 b5bd b54d da3d cc1e 353c a2b7 67bd
00000370: c38b 323d c71f 593d 80d3 603d 53f3 e73d
00000380: f77a 05bd 18a9 83b9 da3b df3d e31b c33d
00000390: c409 d33d 34eb ef3d 6845 6fbd 6608 af3d
000003a0: 063a 81bd c2ac d73c 9344 f4bd 7ecd 453b
000003b0: 0598 68bd 1616 d3bb 3117 f1bc b7b1 aebd
000003c0: 7368 d83d 7fc5 36bc a7ef 8a3d 9252 513d
000003d0: 862b 1dbd dd1b ba3d 8a7e aebd 42e1 a5ba
000003e0: 5930 9dbd 72ac cdbd b65a c0bd 1122 19bd
000003f0: 814d 90bc 9adf e6bd 719c 84bc 8e4d be3d
0.13037798 -0.111958764 0.058854535 -0.12607233 -0.062917896 -0.0022888551 -0.02846803 0.12403435
0.11246134 0.10489579 -0.0760135 0.09443696 0.05674633 -0.05960839 -0.15100268 -0.10238261
-0.029076228 0.026907567 0.12383928 -0.00038465904 0.11506307 0.0021847645 -0.091243625 0.12505487
0.09686478 0.05077094 -0.12475014 -0.11870928 -0.075239524 0.057123076 -0.06076333 -0.04240454
-0.13387096 0.12229373 -0.008934726 0.054441612 -0.040614076 0.06411871 0.076564245 0.12363039
0.08916333 -0.11021388 -0.12246587 0.028284159 0.05750482 0.07509699 0.0720035 -0.0930018
0.09752901 -0.10257633 -0.11621811 -0.081504025 -0.097339876 -0.003432588 -0.044086948 0.02772842
0.10396108 0.05453845 0.019972418 -0.10241611 0.08533424 0.09328101 -0.111808375 0.12208709
0.05331886 -0.08977403 0.062190525 -0.07702311 0.10041967 0.09172681 0.03506372 -0.043627273
0.10185595 -0.09571173 -0.03252405 0.010709067 0.07269496 -0.022021137 -0.07596986 0.0267361
-0.104665145 -0.08089685 0.12333171 -0.015816199 0.04131993 0.09311346 -0.107476726 0.08053366
-0.07080419 0.08571345 -0.115522526 -0.018047923 0.09215445 -0.058956563 0.056731265 -0.03563538
-0.11971146 -0.06599926 -0.08127025 0.07252905 0.016857242 -0.09864413 -0.048288763 0.005018411
-0.08424462 0.023475131 -0.09071144 0.0748256 0.10733642 -0.080635436 0.118228324 -0.088751554
0.025404055 0.0016517242 0.1271773 0.04212078 0.054109287 -0.0971778 0.015190938 -0.07900081
-0.035887953 -0.030041428 -0.08261837 -0.014927503 -0.037708737 0.044544213 0.039356988 0.016658546
-0.124482356 0.12153785 0.07039423 0.017572608 -0.055818345 0.006062996 -0.04045464 0.03487784
0.06879918 -0.11989685 -0.08333523 0.033717457 0.14457421 -0.06948396 -0.045719873 0.09667846
0.14486313 0.09449738 0.010231703 -0.02512271 0.039969236 0.019184027 0.057158552 0.080165245
0.0025949243 0.015127171 -0.070737824 0.0042965245 0.028946167 -0.03106546 -0.054412127 0.046444006
-0.09302624 0.005988118 0.11452741 -0.047462184 -0.082352996 -0.06908644 0.042640265 -0.029428227
0.057644073 0.011870902 -0.059901536 -0.05525376 0.03918926 -0.0030031344 -0.07531287 0.059500974
-0.098280124 0.008478083 0.08122992 0.09568843 0.07852653 -0.006398625 -0.029926183 0.14240944
0.01742104 -0.09369459 -0.073777 -0.08571115 -0.0045162323 -0.06274128 0.06487991 0.08807216
0.046830405 -0.11223429 0.08043963 -0.07266964 0.10037306 -0.069089785 0.05662995 0.018211173
0.0479536 0.113175474 0.03169333 -0.06830421 -0.08374723 -0.05896211 -0.02220276 0.020934615
0.016223116 0.09183087 -0.051832035 0.10674309 0.06202369 -0.00044670614 -0.12727246 0.06924439
-0.088639215 0.10659353 0.011054706 -0.05657161 0.04359032 0.05300882 0.054889202 0.11325707
-0.03258797 -0.00025112252 0.10900088 0.09526803 0.10304597 0.11714783 -0.0584158 0.08546524
-0.06309895 0.026327495 -0.11927142 0.0030182297 -0.056785602 -0.006441842 -0.029430004 -0.0852999
0.10566797 -0.011155485 0.06783991 0.051104136 -0.038371585 0.09087346 -0.08520229 -0.0012655633
-0.07675237 -0.10042657 -0.09392302 -0.037386004 -0.017615082 -0.11273117 -0.016187878 0.09292136

gru.weight_hh_l0 f4 [192, 64]
00000000: b03d 25bd b5b7 923d 659b 6fbc 9f81 893c
00000010: 0bc1 4b3d b3f2 bc3d 4ad3 03bd f8ca 0bbd
00000020: 6c64 593d 4fa6 2fbe 061e b0bc 2dab 5c3c
00000030: 4204 b0bd ddf9 96bd 984c 953c e217 d3bd
00000040: 60c5 92bd c026 743d 2a1d bebd bfb2 90bd
00000050: 59d0 d93c d5a1 84bd 47b6 b6bd 97ec a03d
00000060: 3d83 763c ff92 6ebd 3520 45be 1509 97bd
00000070: bd12 15bc 6c7f 9d3b efa0 3bbd cb1b e93c
00000080: a658 683d 5ef3 e4bd f300 ec3d 1107 f0bd
00000090: 6a6b 5c3c 4aed 083e 75c4 63bd d712 48bd
000000a0: ddb8 b73c 0be8 f4bd 590f 9f3d 064f da3d
000000b0: 89e2 243d 11d4 923d 4df9 bd3c 855b 13bd
000000c0: 8668 68bd 2cf5 d43c 4638 08bd d08a dcbd
000000d0: 6363 fdbb 2484 b5bd 7f61 adbd fc62 c03d
000000e0: 5034 f73c d4b6 403e e4bf 923c 731e ca3d
000000f0: 1bff 38bd 5f8a d93d 242b 6f3c 8477 93ba
00000100: 37ef a2bd e2fa 9ebc 846f 273e ffdd 09bd
00000110: c6f6 b23d f66d 9dbc 2b11 36bd 5d3c 193e
00000120: 2bea 053e cc5d 20be 3ddc 5a3d 51b7 f43c
00000130: c9d8 babc 97e8 d73c 736d 113e f34c ea3c
00000140: 5100 423c 5320 83bd ac2c 62bd 0cb7 a0bd
00000150: 55b0 793d b64e dfbd 4bc3 29bd 6d60 9d3c
00000160: 2619 2b3c 26b4 cbbc 5427 f0bc 9763 51bc
00000170: 6e59 733b 2d2e 383e d50f fabd ff33 743d
00000180: 1d2b d13d eee7 823d 52d8 f3bd 442d eebd
00000190: 163b b9bd efcf 933d a3f5 2abd 2f91 9b3c
000001a0: ef40 59bd 4138 033d 275a 3f3b 8556 7cbc
000001b0: ad8b 323d 84d0 333e 4c2b a9bd 5c24 cabc
000001c0: cb0a 1b3e 849d cd3c f391 c33d ccbe b8bd
000001d0: 7c1c 403d 1d23 8d3d 45df 26be 7c24 fb3d
000001e0: 94f8 bb3c 5ce7 783b 5535 b23d 273a 87bd
000001f0: 71b9 9fbd a9e6 053e 1d1c 84bd 86ef e3bd
00000200: 3687 ac3d 16d5 6b3d c833 903d e39f 9fbc
00000210: 35a5 31bc 1f24 7cbc 921c 913d 78b2 a7bd
00000220: d29c 0fbd 7898 25be 1dee 2ebd 8672 26bd
00000230: 63d2 d33d 0264 613d f0d0 f53d 501c 013d
00000240: a9a9 ed3d 04e6 e23b b946 b03d 092b 3cbd
00000250: c560 51bd e3cc 12be c1ec 203d f70c b13d
00000260: 5428 c4bc 06ab 57bd 8cd4 dbbd b98a f7bd
00000270: 79dd d33d d951 023e eb77 a13d 5cbf 213e
00000280: 1c9b 283e 7138 e5bd 4b15 8d3c 6a7c 13be
00000290: 7c72 453c 9a8c b63d 86ae 9e3d 9834 84bd
000002a0: c595 383e 958d 353c 65bf 203e 51e7 253d
000002b0: a30c 253e 7908 2abd a2fa a2bb a4d3 10bd
000002c0: 772c 193d 0ae2 14bd 9447 1e3d 64b8 a5bd
000002d0: ff9e 0ebe a723 4d3d a62c bdbc 7aa0 313d
000002e0: 9f68 e7bd 18f3 1e3e 98bf b53d 67de 73bd
000002f0: 9860 f53d f180 163e 45a9 9abd 72cd 193d
00000300: 67ba 71bc cf5c d83d b8ed 403d a42a f6bd
00000310: 93ee adbc d27f 5f3c 921c 153d ce81 a23d
00000320: 75bb db3b 3812 2abe 9ca3 61bd 34c8 30bd
00000330: cea5 5d3d 6d7a f2bd b19b b43d ea78 5ebd
00000340: f405 273c 4c71 25be 7a23 853d c4ab 763d
00000350: 0153 aebd c65f 0c3a 69d5 1ebd 8da3 f73d
00000360: ef0a 263d 7ef4 a63d 9ee1 a93c d659 cfbd
00000370: 0180 1c3e ba1f 58bd 9f08 233d 5dbb 2e3e
00000380: 765f c2bd e09e ad3d ec2b b0bc a317 5cbd
00000390: 74b7 603d ded3 6f3d 6413 453c 8873 9bbc
000003a0: 82ea 143e ef02 07bd 4f28 85bc 64a0 c0bc
000003b0: 14ba 16bd 73b3 edbc 8bf7 003d fbb9 91bc
000003c0: b967 b53d e192 0cbd 93e1 353e 2e7d 173d
000003d0: 19a6 1abd 3334 503d 4b0a 32be c317 03bd
000003e0: 84ae f83c 2129 acb9 0f46 163e 8b26 133b
000003f0: ed3d bebb 0a03 233d 53b3 13be 7173 b2bd
-0.040342033 0.071639456 -0.014624451 0.016785441 0.049744647 0.09225979 -0.032183923 -0.034129113
0.053074285 -0.17153285 -0.021498691 0.013468546 -0.08594562 -0.073718764 0.018225 -0.1030729
-0.071665525 0.059607267 -0.09282906 -0.07065343 0.026588606 -0.064761795 -0.089214854 0.07857626
0.015045938 -0.058245655 -0.19250567 -0.07374779 -0.009098706 0.0048064496 -0.045807775 0.028455636
0.056725167 -0.11179231 0.115236185 -0.11720098 0.013453344 0.13371769 -0.055607278 -0.048846092
0.022427017 -0.11958321 0.07766599 0.10659604 0.040255103 0.07169355 0.023190165 -0.03597595
-0.056740306 0.025995813 -0.03325679 -0.10768664 -0.007732795 -0.088630944 -0.084658615 0.0939388
0.030176312 0.18819743 0.017913766 0.09869089 -0.045165163 0.10622095 0.014597688 -0.0011250828
-0.07955783 -0.01940674 0.16351134 -0.033658978 0.087384745 -0.019217473 -0.044449966 0.14964433
0.13077609 -0.1566078 0.05343269 0.029872568 -0.02280845 0.026356025 0.14201908 0.028601145
0.011840896 -0.0640265 -0.055218384 -0.078474134 0.06095918 -0.10903685 -0.04144601 0.019211018
0.010443008 -0.024866175 -0.029315628 -0.012780092 0.0037132162 0.17986365 -0.12210051 0.0596199
0.10213301 0.06391893 -0.11906494 -0.116297275 -0.09044473 0.072173946 -0.041738164 0.018990127
-0.05304044 0.03203607 0.0029198022 -0.015401487 0.043590236 0.17560011 -0.08260211 -0.02467554
0.15140836 0.025099523 0.09549322 -0.090207666 0.046902165 0.06891463 -0.16296108 0.12262818
0.02294568 0.0037979698 0.087015785 -0.066028886 -0.07799042 0.13076271 -0.06450675 -0.1112967
0.08424227 0.05757626 0.070411265 -0.01948542 -0.010842611 -0.015389471 0.070855275 -0.08188337
-0.035061665 -0.16171443 -0.04270755 -0.04063656 0.103428625 0.055027016 0.12002742 0.03152114
0.11604626 0.0069243927 0.08607239 -0.04593948 -0.051117677 -0.1433597 0.039288286 0.08645051
-0.023945011 -0.052653335 -0.107338995 -0.12087006 0.10344977 0.12726535 0.07884201 0.15795654
0.1646542 -0.11192406 0.017222067 -0.14402929 0.012051221 0.08913536 0.077481315 -0.06455344
0.18025883 0.011081119 0.15698011 0.040503804 0.16118102 -0.041511986 -0.0049737254 -0.035358086
0.03739592 -0.03634838 0.03864248 -0.0809181 -0.1392784 0.05008283 -0.02309258 0.043365933
-0.11299252 0.1552242 0.08874434 -0.05953827 0.119813144 0.14697625 -0.07551817 0.037549444
-0.014753914 0.10564577 0.047101706 -0.12019852 -0.021231925 0.013641315 0.0364042 0.079349145
0.006705696 -0.16608512 -0.05508767 -0.04315968 0.0541132 -0.11839757 0.08818758 -0.05431453
0.01019429 -0.161565 0.06500907 0.060222402 -0.085119255 0.00053548475 -0.038777743 0.12091742
0.04053777 0.08152102 0.020737465 -0.10124557 0.15283205 -0.05276463 0.039803144 0.17063661
-0.09490864 0.084775686 -0.021505319 -0.05373348 0.054862455 0.05855166 0.012028549 -0.018975988
0.14542583 -0.032961782 -0.016254572 -0.02351398 -0.03679855 -0.029016232 0.031486075 -0.017788878
0.08857674 -0.034319762 0.17761831 0.036984615 -0.03775606 0.05083103 -0.17386739 -0.032005083
0.030356653 -0.0003283704 0.14675163 0.0022453393 -0.005805722 0.03979782 -0.14423876 -0.08713425

gru.bias_ih_l0 f4 [192]
00000000: 3f7c 13bb f89d 153e ed5c 8b3d ce17 403d
00000010: 75ab 493d e906 4a3d 1b7b 30bd 139f 993c
00000020: c976 053e b7fc 1d3e d127 063b a1aa 193e
00000030: c2d7 cc3d 94f4 ee3d 44d8 e33d 04d3 4d3b
00000040: ee6e efbd d201 133e c688 fabd 273a 023e
00000050: 51ba 923d 028b 293d da31 fc3c aa6e c93c
00000060: ffdc d0bd 0ce3 a7bc 8aa5 213c 7673 a63c
00000070: 3b27 753d d332 1abd 2c06 84bd dfb4 163e
00000080: e7e7 a03d 026d b13d 27a5 ae3c 9b05 2a3b
00000090: f3f9 db3d 8038 fd3d 9a51 3a3d 3f01 303d
000000a0: d661 09bd cd40 283e 038b 72bd 11ab 373e
000000b0: 6630 e73d 5d13 9ebc 0d44 bc3d 421a 273d
000000c0: 094b d03d aa03 06bb 1066 eb3d 4b28 d5bc
000000d0: 035d e63d 3561 553c ab6e c53d f48f edbd
000000e0: 327b f23c fd39 e2bd 9e23 273e 0c8e 0dbd
000000f0: c103 a03d fe13 b73c 0bb0 e23c a156 8a3c
00000100: 4b80 22bd 5813 2dbd 3914 86bd a2d0 43bd
00000110: 96ca 11be e9c8 d9ba 5581 72be 342f bdbb
00000120: 7838 353e 45f3 ed3d c60f 12be a020 833d
00000130: cd93 58bc 8219 dd3a 2396 dfbd 042f a8bc
00000140: 2071 04be d21e fa3c e503 813e 0d33 053e
00000150: b1e8 09be 3d23 03be 6e42 18be f96e b93d
00000160: c2b0 b1bd 174b dabc b709 d5bd d788 9b3d
00000170: 1cf4 eabd aa66 63be d147 b1bc 2a6a 10be
00000180: 984c 94bc 8420 cabc 5a85 973d 7197 4dbe
00000190: 82bf 94bd 64fc 7bbc a226 b63d c93f 31be
000001a0: 930a c3bc 3bc5 1fbd b6f3 3b3d 0a71 183e
000001b0: 0f31 91bd 3c63 78bc 54e3 8ebd 6d95 a3bd
000001c0: bea0 99bd 3467 cdbd 0d1a f8bd bec7 6f3d
000001d0: c657 d4bd d111 3f3d ee44 10be 6084 babd
000001e0: 3f29 acbd a2e6 9dbd ec02 09bc c194 8fbd
000001f0: d774 7839 10dd 3cbd 2431 aabc d0e9 563d
00000200: 2504 bcbb 8bcb 363e ea66 ff3d 9139 0bbe
00000210: 7fc2 863c 9b3b 2abc 57a7 a03d 5c93 74bd
00000220: 83c8 313d d304 1abe ac30 0d3e 150c b43d
00000230: c7d8 913d 54ef 2fbe 7353 3e3d aea6 75bd
00000240: 04bc 1b3e 42a5 00be a75c 303d 6d2f a1bc
00000250: 94ff 08be 3a43 e4bd d2fa d5bb 97b1 103e
00000260: 5300 c43d 2cd5 063e 60ad 15be f5ef 7c3c
00000270: 4c28 ce3d 445b 233e b5ad cdbd 3187 1e3e
00000280: 4614 d9bc 5ff8 43bc d3e0 a5bc 4c92 80bd
00000290: ab60 2dbd abc1 873d 44e5 4bbc 3741 343e
000002a0: be4e 383e b73a abbd 802c 163e 66e1 283d
000002b0: 5ab8 3a3e 63f7 dd3d 5351 31be bc21 ce3d
000002c0: 98be 113d 72ef cd3d 545e eb3d 56bc debd
000002d0: ca9e 39be f7ad 57bd 6e91 e3bd f465 183e
000002e0: a7af 74bd 9705 f53d 6a6d 7abc cbee 673d
000002f0: 6773 74bd f050 f63d 0e75 1c3d 8754 18be
-0.0022504476 0.14611042 0.068048336 0.046897702 0.04923578 0.049322996 -0.043086153 0.01875261
0.13033594 0.15428434 0.002047051 0.15006496 0.1000209 0.11667743 0.11125234 0.0031406293
-0.1169108 0.14356163 -0.12233119 0.12717496 0.07164443 0.041392334 0.03078549 0.024588902
-0.10198402 -0.020494007 0.009866128 0.020318728 0.059851866 -0.037646126 -0.0644649 0.14717434
0.07856732 0.0866337 0.021318985 0.0025943283 0.107410334 0.12364292 0.045487978 0.04296994
-0.03354057 0.1643097 -0.059214603 0.1793635 0.11288528 -0.019296343 0.09192667 0.040796526
0.10170562 -0.0020448961 0.11494076 -0.02602019 0.11248209 0.013023664 0.09640249 -0.115997225
0.02959976 -0.11046217 0.1632218 -0.034559295 0.07813216 0.0223484 0.027671834 0.016887011
-0.03967313 -0.042254776 -0.06546826 -0.04780639 -0.14237437 -0.0016615662 -0.23682149 -0.0057734493
0.17697322 0.116186656 -0.1426383 0.06402707 -0.013218832 0.0016868564 -0.10917308 -0.020530231
-0.12933779 0.030532274 0.25198284 0.13007756 -0.13467671 -0.12806411 -0.14869091 0.090543695
-0.08676292 -0.026647134 -0.104022436 0.075944595 -0.114723414 -0.22207132 -0.02164069 -0.14102998
-0.018102929 -0.024673708 0.07398482 -0.20077302 -0.0726309 -0.015379999 0.088940874 -0.17309488
-0.023808753 -0.039006453 0.045886718 0.14886871 -0.07089435 -0.015160378 -0.06976953 -0.07987485
-0.07501362 -0.1002945 -0.12114344 0.0585401 -0.10368304 0.04664785 -0.14088795 -0.0910728
-0.084063046 -0.07710005 -0.008362513 -0.070107944 0.0002369465 -0.04610926 -0.020775385 0.052469075
-0.0057377988 0.17851083 0.12470801 -0.13596179 0.016450165 -0.010390188 0.078444175 -0.059710845
0.043404114 -0.15040903 0.13788098 0.08791367 0.07121425 -0.1718114 0.046466302 -0.05997341
0.15208441 -0.12563041 0.04305711 -0.019675935 -0.13378745 -0.11145635 -0.0065301443 0.14130245
0.09570374 0.13167256 -0.14616919 0.01543807 0.1006628 0.15952784 -0.100428976 0.15481259
-0.026498925 -0.011961072 -0.020248806 -0.06277904 -0.042328518 0.06628736 -0.012444798 0.17603002
0.17998788 -0.08360808 0.14665413 0.04123058 0.18234387 0.10838201 -0.17316179 0.10065028
0.035582155 0.10055436 0.11492601 -0.10875766 -0.1812698 -0.05265614 -0.11111723 0.14882642
-0.059737828 0.11963957 -0.015284875 0.056624215 -0.05968037 0.12027156 0.03819757 -0.14875995

gru.bias_hh_l0 f4 [192]
00000000: 7b6b 103e a159 c33c 3153 b13d 60cc 47bd
00000010: 62cb ce3c bd91 79bc b32f 873d d218 0a3e
00000020: b056 59bd 322c 073e 0956 d73d 7df8 ef3d
00000030: f108 a23c 40e7 723d 36d9 803b 4c48 83bc
00000040: b111 9dbb 90bd c4bb 74b0 34be 2fc8 c23d
00000050: 4790 e8ba ac29 d9ba bff1 013e e99c ac3d
00000060: 5087 d83c 2e7e 113d a69d 0d3e 538b bb3d
00000070: b01d ebbc 55be ab3d adea d73d e64d 4e3c
00000080: 8150 953d d1da 3b3d 86bf d13c 7c6f 7ebd
00000090: 11fa 313e 97ae 313e da7c 37bb a12f a9bc
000000a0: 0921 2d3e 0710 20bd fd61 5dbc 1fc5 283d
000000b0: 948c e53d c53d 59bc 9f59 bb3d 60c1 b0bc
000000c0: 08bc 183e be57 c6bb 442c 033d ff62 c9bc
000000d0: 185a 24bc 9a94 d83d 1be9 f9bc 8733 823d
000000e0: c0ee 983d 7f09 f7bb 8d2f 47bd aaf0 30bc
000000f0: 740c c73c e95d cc3d 5bfa 953d f3e4 a7bd
00000100: 65d7 f6bd 7b08 4dbe e582 053e 2b50 33be
00000110: e18e 2b3d 7ad7 88bc 3974 e4bd b3a0 30be
00000120: 20ee 183e 1357 a93d d2b2 b5bd ef4c f33d
00000130: bda8 25be da9d 3fbd c3fd 853d c18d 93bd
00000140: 5d63 2c3d 89fc 343e b8c0 473e ec08 0d3e
00000150: d144 503c 4d1f 7fbd f10a 503c 0d37 f53d
00000160: 9cb9 ca3d ad5c 03bc 69fc 223d 62d1 f53c
00000170: ed7c 403d ba47 bdbd 7ceb 9cbb 92fc 48be
00000180: 8ced 14be 931a aebd e5cd 33bc b8f2 3ebc
00000190: 5b5c 093d 9841 60bc c1b0 edbc c268 933d
000001a0: 5f97 eabd 607b 9fbc 667a 45bd eaea 2f3e
000001b0: 2a15 c33d f972 833d a4ba 08be 29ce 773d
000001c0: b5da 97bc a828 c83d 00dc 9f3d 0637 0bbc
000001d0: 193d 3bbe e69b 153d 8a42 53be 2c2b aabd
000001e0: f598 18bc e2a0 223d 5f01 18be 21ac 89bc
000001f0: 7863 153e 1545 183e e660 0fbd beef a83d
00000200: 77c8 913a 73b9 203e ee25 cb3d 3a4d 15be
00000210: e07a c83d b676 003e c39e 85bc 61b8 183e
00000220: d442 ffbc 3fa0 7dbd 63a9 ae3d 3409 da3d
00000230: 4ce3 8e3d 5d2b 853d 714e 393d 9d76 15be
00000240: 4fa4 33bd bebb 13be 9ed3 bf3d 0745 8ebd
00000250: 33b7 17be 1052 85bd 2d1d 14be 2631 a23d
00000260: bd22 1bbd 8289 263e 261b 21be 5156 36be
00000270: 7237 0cbd e4c1 3a3c d368 833d ab95 ea3d
00000280: c7c2 fb3c 4cd3 69bc 23fe b1bb a25a 32be
00000290: d7a0 25be 7416 313d feb3 b9bd 95b4 27bd
000002a0: 3a81 543d 85a8 36be 7e2f 613d 7e84 9d3d
000002b0: 4498 363e 4267 99bc 2e1c 00be 501b 8e3d
000002c0: d8f1 983d 8178 243d e208 3b3c 9d79 e83c
000002d0: 45ac e13c d6e4 203c 1f00 05be 80af 2abc
000002e0: b7f5 263d 9847 02bd dd45 313e 546b 013d
000002f0: 395c 523c a5f7 203d 04e0 15be c1cb d8bc
0.141035 0.02384645 0.086584456 -0.04877889 0.025243465 -0.015232501 0.06600895 0.1348603
-0.053061187 0.13200453 0.10514457 0.11717317 0.019779654 0.05930257 0.0039321436 -0.016025685
-0.0047933687 -0.006004043 -0.17645437 0.09510838 -0.0017743193 -0.0016568205 0.12689875 0.08428366
0.02643171 0.035520725 0.1382967 0.09157433 -0.02870068 0.08385912 0.10542808 0.012591815
0.072907455 0.045862976 0.02560402 -0.06211804 0.17380549 0.17351757 -0.0027998001 -0.020652594
0.16907133 -0.039077785 -0.013512132 0.041203614 0.11208454 -0.013259356 0.09147953 -0.021576583
0.14915478 -0.00605294 0.032024637 -0.024583338 -0.010031246 0.105752185 -0.030506661 0.06357484
0.07467413 -0.007538974 -0.048629332 -0.010799566 0.02429793 0.099788494 0.07323142 -0.081979655
-0.12052802 -0.20022766 0.13038214 -0.1751105 0.041884307 -0.01670431 -0.1115498 -0.17248802
0.14934587 0.08268561 -0.08871998 0.11879908 -0.1617765 -0.0467814 0.06542542 -0.07204772
0.042086948 0.1767446 0.1950711 0.13772935 0.01271172 -0.06228571 0.012697921 0.11973391
0.098986834 -0.008017701 0.0397915 0.030007068 0.04699414 -0.092421964 -0.004788814 -0.19627598
-0.14543742 -0.085011624 -0.010974382 -0.011654548 0.033535343 -0.013687514 -0.029014947 0.07197715
-0.11454653 -0.01946801 -0.04821243 0.17179456 0.09525521 0.06418414 -0.13352448 0.060499344
-0.018536905 0.097733796 0.078056335 -0.008497005 -0.18285026 0.03652563 -0.20630851 -0.08309016
-0.009313812 0.03970421 -0.14844273 -0.01680571 0.14588726 0.14870103 -0.03500452 0.08248852
0.0011122365 0.15695743 0.09919344 -0.14580241 0.097890615 0.12545285 -0.016311055 0.14914085
-0.031159796 -0.0619204 0.08528402 0.106462866 0.06976947 0.065024115 0.045240823 -0.14596029
-0.04385787 -0.14427087 0.09366535 -0.0694676 -0.14815979 -0.06509793 -0.14464255 0.079195306
-0.037874926 0.16263393 -0.15733013 -0.17806365 -0.034232564 0.011398766 0.06416478 0.11454328
0.030732526 -0.0142715685 -0.005431907 -0.17417386 -0.16174637 0.043234304 -0.09067534 -0.0409437
0.051881053 -0.17837723 0.054976933 0.076912865 0.17831522 -0.018725995 -0.1251075 0.06938803
0.07468003 0.040153984 0.011415692 0.028378302 0.027547965 0.009820184 -0.12988327 -0.010417819
0.040761676 -0.03180656 0.17311807 0.031596497 0.01283937 0.039298672 -0.14636236 -0.026464345

fc.weight f4 [1, 64]
00000000: 60bc 463e d42e 6f3d aaef ca3e c759 d2bd
00000010: 80f6 a93e 1f3b 123f 9417 44be f540 093d
00000020: b541 183f 6c77 07bf f2e1 e23d 69f9 823e
00000030: 09f3 9abe 2c67 20be 919f 133f d43e 30bf
00000040: 533f fe3e 3762 e4be bb40 20bf c8be 293f
00000050: a83b d3bd 61b0 6cbe 8246 d1bd 6491 ca3e
00000060: 8293 033f 3156 3b3e d4ea 70be a4f0 04bf
00000070: 0a1f bf3e 4a77 a63c 429e cdbe d150 953e
00000080: 243c 153f 1dac 1c3e 280f 213f aa35 86bd
00000090: de2b 6cbc b13f 023f 33ac fd3e c80e 333e
000000a0: 8d6f c53e a8bb 98be 8129 023f c21d 2b3f
000000b0: c68b ba3e c287 cf3e f70c 5fbe 7e74 093f
000000c0: 020d aa3e c947 ee3e 5f81 7c3e 8eb2 1bbf
000000d0: 437b a8be 340c b2be 21fe 1fbd d133 d23e
000000e0: c424 bbbe 4701 8a3e 0892 2e3e 8861 093e
000000f0: b129 c0be 13c1 103f ef3d fc3e 727f 05bf
0.19407797 0.05839427 0.39635974 -0.1027103 0.33195877 0.5712146 -0.1914962 0.033509213
0.5947526 -0.529166 0.11078252 0.2558091 -0.30263546 -0.15664357 0.57665354 -0.6884587
0.49657688 -0.44606182 -0.6259877 0.66306734 -0.10314113 -0.23114158 -0.102185264 0.3956405
0.51396954 0.18294598 -0.2352708 -0.5192969 0.37328368 0.020320553 -0.40159804 0.2916322
0.5829489 0.15300031 0.6291375 -0.06553204 -0.014414756 0.50878435 0.4954544 0.17486107
0.3856167 -0.2983067 0.5084458 0.6684228 0.36434764 0.40533262 -0.2178229 0.5369338
0.3321305 0.46539143 0.24658726 -0.6081933 -0.3290654 -0.34774935 -0.039060716 0.41055158
-0.36551487 0.269541 0.17047894 0.13416111 -0.37531808 0.5654461 0.49266002 -0.5214759
