GRU/model_level.pth (torch, 59333 bytes, 6 tensors)

gru.weight_ih_l0 f4 [192, 6]
-0.030602278 -0.015523711 0.106046334 0.11107259 0.059506763 0.023795929 -0.01586804 -0.067626394
-0.004444299 0.17356399 -0.09913212 0.05381156 0.24005902 0.05717809 -0.12843978 0.057432488
-0.07426567 -0.057505205 -0.04133438 0.036901362 -0.17283776 -0.092024684 -0.038989224 0.023609813
-0.08258775 0.13073263 -0.17746396 -0.015635839 0.0036728876 -0.022916218 -0.008948066 0.10891972
-0.09035242 -0.11198575 0.017917402 -0.069032244 0.048569478 -0.13659468 -0.009975651 0.16261366
-0.1040687 -0.054230932 -0.10406924 -0.11561873 -0.035645537 0.12442987 0.019243991 0.051236227
0.09956004 -0.065187775 -0.07469441 -0.025535228 0.0656595 0.02071367 0.08826164 -0.16866727
-0.07292844 -0.06288814 0.11125153 -0.026598832 -0.022733733 0.067135826 -0.021672951 0.08118585
0.1741804 -0.06745774 0.19744334 -0.025607439 -0.08708191 0.03173188 0.10791789 -0.027270682
-0.088326015 -0.021870043 0.10788239 -0.07925666 -0.030383414 -0.05570613 0.13093248 -0.03883857
0.07581611 0.08600683 0.058970094 0.11752999 -0.031964447 -0.024679862 -0.22477955 0.06343259
0.07935446 -0.02671502 -0.0015388072 -0.06863086 -0.15608531 0.06811911 -0.10575102 0.00020315059
-0.096664555 0.16005045 -0.061279546 -0.07279775 -0.16533953 -0.012768923 -0.039540946 -0.06781187
0.024791822 0.0013040127 -0.11889915 -0.021512909 -0.027543496 -0.12981625 -0.12480051 -0.010284103
0.1611639 0.02566912 -0.08661775 -0.09182669 0.00095669046 0.039873563 0.08548341 -0.073648684
0.14921893 0.030461986 -0.074870944 -0.11751392 -0.10317264 -0.05199985 -0.044304844 0.0041157464
-0.17553453 -0.071605004 0.0009970323 0.073693156 0.108224265 -0.07358403 0.072656415 0.078409664
-0.10516213 -0.033014487 -0.060542453 -0.113262035 -0.03604736 -0.005315301 0.09330032 0.12726896
0.009061958 0.13011424 -0.005315591 0.08672639 0.08975456 0.010457604 -0.09220944 0.023942135
0.11114805 -0.10823594 0.10186853 -0.25903037 -0.165737 0.066080496 0.122502565 0.038775906
0.09680618 -0.07797505 -0.026266085 0.06156332 0.042248096 0.18685564 0.14163017 0.13367003
0.0016331474 -0.096718214 -0.109151475 -0.17491284 -0.009781275 0.063359626 0.017814985 -0.0077585075
0.07217054 0.16300789 0.053073548 0.1854183 -0.028563606 -0.15412311 0.052539457 0.12357925
-0.12708366 0.14068438 0.004005242 -0.030652411 0.049012914 0.107184276 -0.017262494 -0.14725313
-0.028867727 0.0703453 -0.051731534 -0.096765 0.0014546141 0.09500807 -0.037834134 -0.032373317
0.05546071 -0.120735794 0.13906561 0.018081874 0.09508431 0.04034472 -0.023597341 0.033014324
0.024722455 0.12993406 -0.036207933 -0.077872105 -0.12847804 -0.07360479 0.1537338 0.025385512
0.0019407675 0.11128116 -0.041184183 0.05379059 -0.1178925 -0.049985413 0.124972954 -0.142472
-0.044607375 0.013194501 0.060342114 -0.09607498 0.069461085 -0.02820084 -0.07984449 -0.03054569
-0.14007868 -0.12703656 0.015262461 0.03168296 -0.08277916 -0.10814143 -0.02534406 0.110295385
-0.01700246 -0.15792659 0.04451032 0.18117811 0.05408389 0.0043129483 0.1800492 0.13128439
-0.18848693 0.051113296 0.017124843 0.17314476 -0.0331325 -0.0839711 0.083464555 0.08435227
00000000: a1b1 fabc 2a57 7ebc d22e d93d 077a e33d
00000010: 5dbd 733d aeef c23c b1fd 81bc b57f 8abd
00000020: 7ba1 91bb c2ba 313e c805 cbbd 8369 5c3d
00000030: 08d2 753e 9333 6a3d b885 03be 543e 6b3d
00000040: 9918 98bd 948a 6bbd 3d4e 29bd e225 173d
00000050: 62fc 30be 7077 bcbd 2ab3 1fbd 5e69 c13c
00000060: c423 a9bd c6de 053e 1db9 35be bb16 80bc
00000070: d4b4 703b cbba bbbc e99a 12bc 4d11 df3d
00000080: b10a b9bd c958 e5bd 84c7 923c c760 8dbd
00000090: caf0 463d 7adf 0bbe ea70 23bc 3284 263e
000000a0: f821 d5bd 4121 5ebd 4122 d5bd 83c9 ecbd
000000b0: 0e01 12bd 16d5 fe3d 93a5 9d3c 14dd 513d
000000c0: 22e6 cb3d 2b81 85bd 62f9 98bd 412f d1bc
000000d0: 7d78 863d b7af a93c 85c2 b43d 1db7 2cbe
000000e0: 825b 95bd 7fcb 80bd d8d7 e33d cbe5 d9bc
000000f0: 183c babc 827e 893d 798b b1bc c444 a63d
00000100: 595c 323e 4927 8abd 962e 4a3e b1c6 d1bc
00000110: 0058 b2bd 4af9 013d 0e04 dd3d c466 dfbc
00000120: 45e4 b4bd ce28 b3bc 71f1 dc3d 5151 a2bd
00000130: a3e6 f8bc 1c2c 64bd 2a13 063e 3115 1fbd
00000140: 7a45 9b3d 5924 b03d a08a 713d 90b3 f03d
00000150: 27ed 02bd 6c2d cabc 9c2c 66be f2e8 813d
00000160: 9784 a23d 75d9 dabc cdb1 c9ba 568e 8cbd
00000170: d4d4 1fbe 0882 8b3d fe93 d8bd d204 5539
00000180: 11f8 c5bd 44e4 233e 4300 7bbd fd16 95bd
00000190: c44e 29be bf34 51bc b0f5 21bd f3e0 8abd
000001a0: 3818 cb3c 68eb aa3a 6681 f3bd d73b b0bc
000001b0: e6a2 e1bc 8dee 04be 6997 ffbd a87e 28bc
000001c0: 2608 253e 0c48 d23c a664 b1bd a20f bcbd
000001d0: 69ca 7a3a 7652 233d ed11 af3d 1fd5 96bd
000001e0: d9cc 183e 6a8b f93c f055 99bd 23ab f0bd
000001f0: 2d4c d3bd cbfd 54bd ff78 35bd 62dd 863b
00000200: 53bf 33be a5a5 92bd daae 823a 70ec 963d
00000210: afa4 dd3d 39b3 96bd e3cc 943d 3f95 a03d
00000220: 3e5f d7bd 333a 07bd 5dfb 77bd edf5 e7bd
00000230: 66a6 13bd fa2b aebb 3d14 bf3d cb52 023e
00000240: 9b78 143c ab3c 053e 692e aebb 9b9d b13d
00000250: 3dd1 b73d 5f56 2b3c 4ed8 bcbd 4c22 c43c
00000260: 97a1 e33d ceaa ddbd 73a0 d03d a19f 84be
00000270: f6b6 29be 3655 873d a0e2 fa3d 7cd3 1e3d
00000280: 5242 c63d 62b1 9fbd f92b d7bc d229 7c3d
00000290: 570c 2d3d 1657 3f3e 8007 113e cce0 083e
000002a0: 550f d63a 3314 c6bd cf8a dfbd 5a1c 33be
000002b0: a441 20bc b1c2 813d bbf0 913c 143b febb
000002c0: 26ce 933d 8aeb 263e a663 593d 4bde 3d3e
000002d0: 39fe e9bc 73d2 1dbe 9d33 573d 1e17 fd3d
000002e0: 3822 02be 910f 103e 683e 833b c41a fbbc
000002f0: c4c1 483d 6e83 db3d 136a 8dbc 86c9 16be
00000300: 037c ecbc 3211 903d 72e4 53bd ba2c c6bd
00000310: c0a8 be3a 9793 c23d f7f7 1abd e299 04bd
00000320: c52a 633d 5444 f7bd 3767 0e3e 7020 943c
00000330: 90bb c23d 8140 253d 364f c1bc 073a 073d
00000340: bf86 ca3c 6f0d 053e c54e 14bd 697b 9fbd
00000350: bf8f 03be 1cbe 96bd 656c 1d3e 47f5 cf3c
00000360: 5a61 fe3a 60e7 e33d bfb0 28bd 8653 5c3d
00000370: 9f71 f1bd 81bd 4cbd d2f1 ff3d 2ee4 11be
00000380: 39b6 36bd c02d 583c 4b29 773d f6c2 c4bd
00000390: 9d41 8e3d 7305 e7bc 8285 a3bd f43a fabc
000003a0: c970 0fbe df15 02be 670f 7a3c fec5 013d
000003b0: 1f88 a9bd 4179 ddbd 599e cfbc 8ce2 e13d
000003c0: be48 8bbc 82b7 21be 7450 363d c186 393e
000003d0: 1287 5d3d a253 8d3b d15e 383e 6a6f 063e
000003e0: b802 41be 2d5c 513d 6649 8c3c dc4c 313e
000003f0: f2b5 07bd 0af9 abbd 77ef aa3d e2c0 ac3d

gru.weight_hh_l0 f4 [192, 64]
-0.029432297 0.11874695 -0.03601113 -0.20400207 0.29281738 -0.34746715 0.06701093 0.09630812
0.22204562 0.3111046 0.19281353 0.35051152 0.24609517 0.14419639 0.09374657 -0.016799903
-0.17968328 0.059048265 0.11727592 -0.307576 0.10965638 0.07524712 0.033912886 0.010509271
-0.46667138 -0.045922242 -0.071928985 0.47669482 0.17272896 -0.24223927 0.16168387 -0.28145048
0.3702949 0.3901831 -0.007184684 0.31291196 -0.037103202 -0.21334752 0.18738225 -0.3971589
0.272744 0.16771875 0.06338462 0.3267254 0.010209716 -0.27749315 -0.10971111 0.3411493
0.26300633 -0.24665555 -0.14800425 0.05202725 -0.020035123 0.15444654 -0.2406514 -0.07194967
-0.016539715 0.21278885 -0.004743185 -0.15675278 0.1710454 0.16662265 0.07700062 0.09061578
-0.09216359 -0.15485536 0.23546961 -0.091545165 -0.21502414 0.2415409 -0.34259567 0.11748092
0.17973381 0.20759416 0.10282592 -0.22808 0.05277122 -0.3937414 -0.19173561 -0.028924154
0.011747184 0.00093331444 -0.010591634 -0.066810735 -0.16698128 0.10856782 -0.08172073 0.10892952
-0.1661681 -0.28663927 0.02671798 -0.15028848 -0.2563392 -0.052549407 -0.016186606 -0.07183372
0.15535897 -0.28068465 -0.18239637 -0.14923577 0.3298602 -0.022745904 -0.2617012 0.19529103
-0.05997955 -0.18681324 0.031685494 0.04704668 0.21373641 -0.16310607 0.2176159 0.09771411
0.028524367 -0.04014374 0.05712493 0.2125428 -0.10195808 -0.19738148 0.2320522 0.33360142
-0.24282347 0.037546907 -0.19182628 0.07978148 -0.09654143 0.084133655 -0.4290891 0.12189898
-0.23296593 0.23130286 0.2662086 0.30614752 0.08602327 -0.27885005 0.28846654 -0.26115805
-0.24280243 -0.18300718 0.07180491 -0.09854316 0.07009791 0.18774477 0.107721396 0.07968558
-0.0907827 -0.26197845 -0.23025814 0.21852869 -0.2083088 -0.36915013 -0.17335255 -0.05893935
-0.099414445 -0.14402439 0.016300267 0.07447295 -0.022350071 0.16106862 -0.23633309 0.14775124
0.04504234 0.09038163 -0.03675367 0.21652617 -0.18512039 0.08423335 0.36409506 -0.26889303
0.0034334383 0.15937665 -0.111703485 -0.15930572 0.055787478 -0.277389 0.11286764 0.16646115
-0.33591112 -0.16371301 0.09861106 0.16281745 -0.4493955 0.028056052 0.031757206 0.027440408
-0.12906648 -0.7618869 0.25882792 -0.30449268 -0.053923316 0.081067294 -0.18031198 0.14478198
-0.01291305 -0.27148744 -0.04040928 -0.30573392 0.022611955 0.05302276 0.05146379 -0.17496012
-0.07614903 0.05529301 -0.12440472 0.044154964 -0.074711144 -0.00046237884 -0.09841669 0.3295068
-0.24605446 0.25664833 -0.02453349 -0.27488306 0.23057514 -0.053927913 0.0131327035 -0.11446339
-0.15412717 0.10730748 -0.050963804 -0.021205205 -0.03511587 0.12867986 0.06226837 0.10237793
0.27744454 0.28988156 0.04347587 -0.19972174 0.012227415 -0.0046229325 -0.15226334 -0.089556985
-0.041115608 0.045854006 0.074635625 0.21775688 -0.10008445 -0.077307045 -0.37282166 -0.15086816
0.072897874 -0.23236254 -0.010486233 -0.14421049 0.03131752 0.3354911 -0.17222159 0.10864199
0.19981797 -0.17151521 -0.2550119 0.018385593 -0.23787671 0.25167498 -0.13615772 0.02448474
00000000: 001c f1bc 9a31 f33d 6880 13bd ebe5 50be
00000010: 29ec 953e 37e7 b1be 073d 893d 313d c53d
00000020: ed5f 633e 1a49 9f3e e970 453e 3f76 b33e
00000030: 5f00 7c3e 38a8 133e 34fe bf3d f39f 89bc
00000040: e5fe 37be 98dc 713d 5c2e f03d 9a7a 9dbe
00000050: 8693 e03d 291b 9a3d 3de8 0a3d 142f 2c3c
00000060: 8def eebe f618 3cbd 814f 93bd 5811 f43e
00000070: dcdf 303e 920d 78be 7590 253e 471a 90be
00000080: 4b97 bd3e 14c6 c73e 7f6d ebbb ff35 a03e
00000090: 87f9 17bd c677 5abe 22e1 3f3e 6958 cbbe
000000a0: 1aa5 8b3e 77be 2b3e cccf 813d 8d48 a73e
000000b0: a746 273c 9513 8ebe 38b0 e0bd 1fab ae3e
000000c0: c4a8 863e 4693 7cbe 6d8e 17be 871a 553d
000000d0: b320 a4bc 3c27 1e3e 526d 76be 595a 93bd
000000e0: 4c7e 87bc 52e5 593e b86c 9bbb cd83 20be
000000f0: 8626 2f3e 219f 2a3e 80b2 9d3d c494 b93d
00000100: 44c0 bcbd 6792 1ebe f21e 713e 087c bbbd
00000110: 4a2f 5cbe 7f56 773e b368 afbe d699 f03d
00000120: 240c 383e 9093 543e 6596 d23d ce8d 69be
00000130: a326 583d 7998 c9be 5756 44be 59f2 ecbc
00000140: 4377 403c aca9 743a 8888 2dbc 11d4 88bd
00000150: 24fd 2abe ce58 de3d 335d a7bd 7116 df3d
00000160: f827 2abe 62c2 92be aadf da3c 39e5 19be
00000170: e43e 83be 0c3e 57bd c699 84bc 8f1d 93bd
00000180: 6c16 1f3e e6b5 8fbe 1dc6 3abe 43d1 18be
00000190: 70e3 a83e 9e55 babc b3fd 85be 5ffa 473e
000001a0: 1ead 75bd f84b 3fbe a6c8 013d 05b4 403d
000001b0: b8dd 5a3e 4705 27be b4d6 5e3e 561e c83d
000001c0: efab e93c c36d 24bd d5fb 693d d2a4 593e
000001d0: 66cf d0bd 5f1e 4abe 189f 6d3e cecd aa3e
000001e0: b7a6 78be c9ca 193d 1c6e 44be 7964 a33d
000001f0: 83b7 c5bd 444e ac3d 91b1 dbbe 2ca6 f93d
00000200: 9f8e 6ebe a8da 6c3e 7e4c 883e 5ebf 9c3e
00000210: f82c b03d 6fc5 8ebe e3b1 933e 82b6 85be
00000220: 33a1 78be 3c66 3bbe 740e 933d ffd0 c9bd
00000230: 7e8f 8f3d 2a40 403e 099d dc3d 3232 a33d
00000240: 48ec b9bd 0a22 86be cac8 6bbe fcc5 5f3e
00000250: e74e 55be 3f01 bdbe 5583 31be 636a 71bd
00000260: cd99 cbbd 217b 13be 2388 853c 4685 983d
00000270: 7f17 b7bc 2cef 243e 4d01 72be 1a4c 173e
00000280: 517e 383d 011a b93d 048b 16bd 09b9 5d3e
00000290: 3390 3dbe 8982 ac3d ab6a ba3e 59ac 89be
000002a0: 8903 613b a233 233e ccc4 e4bd 0a21 23be
000002b0: 6981 643d ee05 8ebe 2627 e73d cb74 2a3e
000002c0: 8bfc abbe 62a4 27be 98f4 c93d 9eb9 263e
000002d0: 2b17 e6be ced5 e53c d813 023d b5ca e03c
000002e0: 012a 04be 050b 43bf 1885 843e 77e6 9bbe
000002f0: b2de 5cbd 9c06 a63d b4a3 38be ba41 143e
00000300: 4291 53bc 6700 8bbe 3484 25bd 2889 9cbe
00000310: b53c b93c 652e 593d b2cb 523d bf28 33be
00000320: 06f4 9bbd ec7a 623d e7c7 febd d6db 343d
00000330: 2802 99bd 706b f2b9 b18e c9bd 1eb5 a83e
00000340: b3f5 7bbe 6967 833e 75fa c8bc 79bd 8cbe
00000350: e41b 6c3e 84e3 5cbd 8d2a 573c c86b eabd
00000360: 83d3 1dbe 06c4 db3d 6cbf 50bd 8ab6 adbc
00000370: a9d5 0fbd a7c4 033e 1e0d 7f3d 85ab d13d
00000380: 360d 8e3e 5b6b 943e c113 323d db83 4cbe
00000390: 7f55 483c f87b 97bb ecea 1bbe a769 b7bd
000003a0: d768 28bd 69d1 3b3d 90da 983d a9fb 5e3e
000003b0: 13f9 ccbd 2853 9ebd 7be2 bebe 2f7d 1abe
000003c0: 7b4b 953d 72f0 6dbe 73ce 2bbc eaab 13be
000003d0: cd46 003d 7dc5 ab3e db5a 30be b17f de3d
000003e0: 159d 4c3e afa1 2fbe eb90 82be 629d 963c
000003f0: f495 73be 8bdb 803e ee6c 0bbe 3994 c83c

gru.bias_ih_l0 f4 [192]
-0.0033045886 0.13507196 -0.04100978 -0.09499689 0.051495083 0.21028994 0.13080753 0.15943728
-0.04178298 -0.16198587 -0.087183066 0.04655881 -0.07331087 0.014335611 0.10042556 0.02417274
-0.07392288 -0.24922659 -0.06493892 -0.03775337 -0.08399577 0.021565437 -0.16793646 0.026649227
-0.15883763 -0.062156722 0.07304671 -0.09226386 0.035306215 -0.1006177 0.09054144 -0.001965224
0.06294298 0.007775695 -0.07654443 0.0088517945 0.13457416 0.13774838 -0.134467 -0.18055162
-0.039900348 0.1980037 0.080693044 -0.2510957 -0.03954903 -0.15809287 0.0076532895 -0.14357561
-0.043880206 0.007481136 -0.09896317 0.024793455 0.18244816 0.08516041 -0.024248678 0.12945494
0.18179956 -0.0948039 0.016620006 -0.011885038 -0.11305539 0.035527404 0.103685565 -0.010031871
-0.006085779 0.5321229 0.3267178 0.28102475 0.27039874 0.31519964 0.27234298 0.31052002
0.37424695 0.3040507 0.09650672 0.06715868 0.17489898 0.14344361 0.4726954 0.16592824
0.3493199 0.22271362 0.20316455 0.25234258 0.3316913 0.6036006 0.20051965 0.1900573
0.1750865 -0.007371904 0.39102498 0.34082663 0.21900491 0.35558778 0.18226194 0.28403887
0.32367063 0.33555877 0.1617161 0.4928215 0.211848 0.008470474 0.4821136 0.31496036
0.2801757 0.08353598 0.32057577 0.16426826 0.040857658 0.15747635 0.21435395 0.042308938
0.30183825 0.16713691 0.417286 0.08559775 0.26198962 0.3600905 0.27253184 0.11668603
0.142278 0.43827528 0.261733 0.34748602 0.22209997 0.12789202 0.07375454 0.32728332
0.0045268736 -0.22644764 0.038664375 -0.110222496 -0.009920232 0.120661 -0.11433226 0.12801568
-0.011424762 0.0710026 -0.09770359 -0.29446748 0.22990967 -0.21531418 -0.13156587 -0.12500513
-0.06824308 0.04724621 0.102632485 0.09039784 -0.07136456 0.040091388 -0.045966543 -0.12208044
-0.021997582 0.09589179 0.030961337 -0.068857476 -0.18542387 -0.22248952 -0.077981636 0.06747936
0.08626394 -0.06532099 -0.22725473 -0.2234537 0.10743531 -0.015009549 -0.02558148 0.1002369
-0.032852285 -0.15831412 -0.21245252 0.039567612 -0.24918512 0.10835634 -0.005240381 -0.08578454
0.03805384 -0.0687942 0.07356838 0.33471805 0.22649321 0.005578684 0.042382862 -0.070443116
0.35307568 -0.045998774 -0.14584996 0.15787794 -0.050330553 -0.00030916315 -0.046423025 0.033852696
00000000: cc91 58bb 4e50 0a3e dff9 27bd bb8d c2bd
00000010: 82ec 523d 3f56 573e 69f2 053e 8743 233e
00000020: a124 2bbd a0df 25be 098d b2bd 73b4 3e3d
00000030: 0224 96bd e9df 6a3c eaab cd3d e905 c63c
00000040: e164 97bd 4135 7fbe b2fe 84bd 47a3 1abd
00000050: f905 acbd 00aa b03c 89f7 2bbe 7b4f da3c
00000060: 55a6 22be 0c98 7ebd 8399 953d d6f4 bcbd
00000070: 409d 103d a710 cebd ca6d b93d fdca 00bb
00000080: 40e8 803d 42cb fe3b 53c3 9cbd 1e07 113c
00000090: cfcd 093e e90d 0d3e b8b1 09be 86e2 38be
000000a0: 8c6e 23bd 7bc1 4a3e 6542 a53d 9e8f 80be
000000b0: 2afe 21bd 19e3 21be 72c8 fa3b 7c05 13be
000000c0: bbbb 33bd 5124 f53b 34ad cabd a51b cb3c
000000d0: b1d3 3a3e 9568 ae3d 2aa5 c6bc d68f 043e
000000e0: aa29 3a3e 8c28 c2bd ae26 883c 76b9 42bc
000000f0: 9689 e7bd 2f85 113d 1959 d43d b75c 24bc
00000100: 376b c7bb 3539 083f 8e47 a73e 7ae2 8f3e
00000110: b471 8a3e d961 a13e 8a70 8b3e 7bfc 9e3e
00000120: 4c9d bf3e 89ac 9b3e 51a5 c53d 7d8a 893d
00000130: b818 333e e2e2 123e 2205 f23e 18e9 293e
00000140: 0fda b23e 0a0f 643e 5e0a 503e 0c33 813e
00000150: 71d3 a93e 9285 1a3f 0655 4d3e 619e 423e
00000160: e049 333e 0390 f1bb 6d34 c83e d480 ae3e
00000170: d342 603e 9a0f b63e e0a2 3a3e 8b6d 913e
00000180: 28b8 a53e 5cce ab3e e898 253e 1a53 fc3e
00000190: afee 583e bec7 0a3c 98d7 f63e 7c42 a13e
000001a0: 3073 8f3e e914 ab3d 8222 a43e f035 283e
000001b0: 5c5a 273d 7b41 213e 9a7f 5b3e 234c 2d3d
000001c0: 8b8a 9a3e f025 2b3e 83a6 d53e e04d af3d
000001d0: 8123 863e c85d b83e 4b89 8b3e 16f9 ee3d
000001e0: 53b1 113e 9e65 e03e de01 863e b0e9 b13e
000001f0: 2d6e 633e 20f6 023e 9f0c 973d ae91 a73e
00000200: 2b56 943b e4e1 67be 895e 1e3d 55bc e1bd
00000210: 7888 22bc 1d1d f73d 0827 eabd 8b16 033e
00000220: ed2e 3bbc d069 913d d218 c8bd 71c4 96be
00000230: 716d 6b3e 527b 5cbe 34b9 06be 5801 00be
00000240: 07c3 8bbd 3e85 413d fb30 d23d 8122 b93d
00000250: 9527 92bd de36 243d 6a47 3cbd 4f05 fabd
00000260: 4634 b4bc ea62 c43d a1a2 fd3c 2605 8dbd
00000270: c1df 3dbe 4bd4 63be d6b4 9fbd 9e32 8a3d
00000280: 26ab b03d 03c7 85bd 77b5 68be 0cd1 64be
00000290: 0b07 dc3d 9dea 75bc 4090 d1bc 0149 cd3d
000002a0: 1e90 06bd 191d 22be 278d 59be a611 223d
000002b0: 622a 7fbe eee9 dd3d 81b7 abbb ceaf afbd
000002c0: 58de 1b3d f9e3 8cbd 05ab 963d 2a60 ab3e
000002d0: d6ed 673e 65cd b63b a799 2d3d 7b44 90bd
000002e0: 56c6 b43e 3669 3cbd b159 15be c1aa 213e
000002f0: 6927 4ebd 2d17 a2b9 1226 3ebd 20a9 0a3d

gru.bias_hh_l0 f4 [192]
0.019563584 0.15020913 0.027632542 -0.06271191 0.0148376655 0.17800099 0.09851206 0.06672018
-0.014094326 -0.002202842 0.07556261 0.08856447 0.079184644 0.1802271 0.0838921 0.016243424
-0.075778075 -0.030447029 0.08660286 -0.069557846 -0.029234074 0.15268655 -0.16127898 -0.10971701
-0.15479219 0.09670066 -0.03440274 -0.018688237 0.18061869 -0.07594496 0.061351344 0.06273194
-0.029851548 -0.18900596 -0.10735078 0.013676731 0.13927858 0.059484567 -0.010309659 -0.10844383
-0.030395212 0.010616512 -0.06490404 -0.088193275 -0.048362646 -0.14137842 -0.052171905 -0.17069513
0.09536301 0.039754115 -0.09409812 0.070671156 0.20231916 0.19342916 0.014512555 0.107392065
0.26510343 -0.17029801 0.22194333 -0.08308251 -0.03856966 0.034686983 0.14774552 -0.037708815
0.02790139 0.4848638 0.22804698 0.32503298 0.27345142 0.14361699 0.2369749 0.25372878
0.31473505 0.40307724 0.3336615 0.20566897 0.13752638 0.2950203 0.38409284 0.34346136
0.22189282 0.26424447 0.24453506 0.13258173 0.25788954 0.6019746 0.1948916 0.3345906
0.16575575 -0.011071853 0.39535233 0.2031658 0.093705125 0.3632311 0.21902801 0.26728058
0.2255589 0.2594864 0.24775614 0.3855017 0.24345288 0.1344663 0.43560383 0.38482267
0.50118524 0.11679986 0.25700918 0.16388394 0.13180014 0.22830991 0.33130857 0.19556677
0.16153042 0.33443564 0.3833339 0.1763333 0.2891369 0.20891975 0.11295093 0.16101451
0.0013794283 0.3923164 0.24648595 0.23467861 0.16403142 0.06150589 0.21298793 0.26878512
0.08653974 -0.00799793 0.12906875 -0.1506659 0.082960814 0.22322099 -0.20963638 -0.07497584
0.22541621 -0.044926446 -0.13675275 -0.2585735 0.17296916 -0.1464067 -0.0018571179 0.10683253
-0.17537726 -0.018080235 0.18174917 0.048612114 0.088655405 -0.032086782 -0.026726885 0.06805873
-0.09516344 0.07238078 0.09252379 -0.08268919 -0.16176538 0.053596634 -0.080247134 -0.17732455
0.1425344 -0.08956059 -0.13269399 -0.1954248 0.06691404 0.116182834 -0.006472968 -0.047751572
0.0010937445 -0.09194821 0.019875113 -0.05060871 -0.23554459 0.068184115 -0.050340727 0.04157719
0.021084527 -0.05758085 0.05671405 0.3595378 0.14666004 -0.03764614 0.06792247 -0.014971016
0.35288665 -0.072278455 -0.20127241 -0.0096210325 0.013115742 -0.048440296 0.036192004 -0.08714141
00000000: cf43 a03c 6cd0 193e a45d e23c 1a6f 80bd
00000010: ae19 733c e445 363e b1c0 c93d 97a4 883d
00000020: e3eb 66bc 8e5d 10bb 92c0 9a3d 4a61 b53d
00000030: 8f2b a23d 748d 383e 9fcf ab3d ee10 853c
00000040: 8931 9bbd 0c6c f9bc d75c b13d 5874 8ebd
00000050: 4c7c efbc dd59 1c3e 5126 25be 50b3 e0bd
00000060: d881 1ebe ff0a c63d e3e9 0cbd 1318 99bc
00000070: 1bf4 383e 0889 9bbd 8c4b 7b3d 9a79 803d
00000080: 3c8b f4bc c78a 41be bada dbbd 5e14 603c
00000090: 0b9f 0e3e 17a6 733d d8e9 28bc cc17 debd
000000a0: 61ff f8bc e1f0 2d3c 69ec 84bd ad9e b4bd
000000b0: e917 46bd 81c5 10be 35b2 55bd b4ca 2ebe
000000c0: af4d c33d 36d5 223d 84b6 c0bd 0abc 903d
000000d0: c12c 4f3e 4b12 463e 11c6 6d3c 5ff0 db3d
000000e0: a3bb 873e 9a62 2ebe 1d45 633e 2a27 aabd
000000f0: 38fb 1dbd f013 0e3d 9a4a 173e 8f74 1abd
00000100: 7591 e43c 1140 f83e 2685 693e b96a a63e
00000110: d301 8c3e 5510 133e 8ca9 723e bde8 813e
00000120: f424 a13e 2460 ce3e aed5 aa3e e39a 523e
00000130: b7d3 0c3e e70c 973e d1a7 c43e 2bda af3e
00000140: df37 633e 0d4b 873e 6667 7a3e 81c3 073e
00000150: 190a 843e 021b 1a3f aa91 473e 764f ab3e
00000160: e0bb 293e b866 35bc 9f6b ca3e b20a 503e
00000170: 79e8 bf3d 6df9 b93e e148 603e 00d9 883e
00000180: eaf8 663e 67db 843e c9b3 7d3e 7b60 c53e
00000190: b64b 793e 89b1 093e 7707 df3e 7a07 c53e
000001a0: ad4d 003f c434 ef3d b596 833e 31d1 273e
000001b0: 9ef6 063e 13ca 693e 47a1 a93e a842 483e
000001c0: 3b68 253e 263b ab3e 5744 c43e b790 343e
000001d0: c009 943e 0fef 553e d152 e73d fde0 243e
000001e0: efcd b43a b2dd c83e d066 7c3e 974f 703e
000001f0: daf7 273e 9aed 7b3d 8219 5a3e 349e 893e
00000200: bf3b b13d c009 03bc 992a 043e 2948 1abe
00000210: 5ce7 a93d 0b94 643e ebaa 56be ef8c 99bd
00000220: 82d3 663e cb04 38bd ea08 0cbe bf63 84be
00000230: d41e 313e a3eb 15be 896a f3ba 03cb da3d
00000240: 1996 33be 001d 94bc 741c 3a3e 7f1d 473d
00000250: f790 b53d 6e6d 03bd 57f2 dabc 6062 8b3d
00000260: 0de5 c2bd 603c 943d 1d7d bd3d f358 a9bd
00000270: d3a5 25be 2588 5b3d 9c58 a4bd 9194 35be
00000280: 8af4 113e 8b6b b7bd efe0 07be 701d 48be
00000290: 3a0a 893d 44f1 ed3d 311b d4bb 2797 43bd
000002a0: fa5b 8f3a 584f bcbd 22d1 a23c 144b 4fbd
000002b0: 9a32 71be 1da4 8b3d 1432 4ebd d84c 2a3d
000002c0: 75b9 ac3c e6d9 6bbd fe4c 683d 5715 b83e
000002d0: 0d2e 163e d732 1abd f01a 8b3d fe48 75bc
000002e0: 8fad b43e ba06 94bd 5b1a 4ebe 89a1 1dbc
000002f0: 69e3 563c 5569 46bd 113e 143d 3277 b2bd

fc.weight f4 [4, 64]
-0.008076754 -0.07978141 0.25352216 0.21517093 -0.15554781 0.18374372 0.033864878 0.0037620096
-0.25212774 0.08667508 0.042418584 0.028974805 0.05955451 -0.102101654 -0.19185601 0.082548805
0.066624105 0.2898298 0.013063887 -0.00033075266 -0.13729699 0.036622405 -0.04373168 -0.22571112
0.25041732 -0.15460673 0.08366469 -0.216797 -0.066862576 0.031288106 -0.0003770499 0.14047997
-0.25356498 -0.16608302 -0.17490834 -0.19105922 -0.10946094 0.051471908 0.18558 0.00944283
-0.18577479 -0.08357231 -0.13357556 -0.17762284 -0.15910846 0.18265493 -0.13191387 -0.107624516
0.11833801 0.31040344 0.23286992 0.027301263 0.16198872 -0.30125588 0.1220037 0.080082096
-0.20506875 -0.13750114 0.09788077 0.22166766 -0.06852777 -0.14196521 -0.052913062 -0.05880045
-0.07937644 0.20222257 -0.1321227 -0.045191314 -0.09510039 -0.1331728 0.28923157 0.10245352
0.10011022 -0.08087454 0.09086832 0.31524155 -0.2089859 0.018679375 0.16060686 -0.15302424
-0.13387193 0.05485796 -0.09148508 -0.0082601085 -0.42161077 -0.33180696 0.17707857 -0.14197569
-0.13402708 0.2719609 -0.11334499 0.20328264 -0.15206335 0.036334127 -0.17566618 -0.24378656
0.24655552 0.393676 -0.30933347 -0.087501705 -0.22278765 0.11534367 0.06637081 0.20141351
0.081537694 0.26728576 0.20805815 0.16936737 0.12496944 -0.17947957 0.39810732 -0.020211242
-0.092870176 -0.18114872 -0.049485855 -0.045731608 0.5171381 0.29235774 -0.16613185 -0.350148
0.32186514 0.16222022 -0.09275132 -0.23438567 0.48250923 -0.40051788 0.18516035 -0.29814044
-0.16020802 0.33249086 0.117608614 0.19386545 -0.11899509 0.15962844 -0.010700629 -0.19592924
-0.30404454 -0.08335495 0.10272397 -0.05814314 -0.064134985 0.017421868 0.30414838 0.12580489
0.49769574 -0.0828035 0.028114848 -0.0463059 -0.11513983 -0.16785046 -0.17383328 0.06585007
0.46434918 -0.06828219 -0.14431842 -0.13650018 0.08671046 0.0068412377 0.10537386 0.005303119
-0.4825771 0.0993357 0.022195986 0.18481804 0.15386285 -0.08859721 -0.21048199 0.12257805
-0.39622158 -0.21656637 -0.41142482 -0.30961937 -0.09727542 -0.10542755 0.23702873 0.00045548612
-0.26831007 -0.04405535 -0.16026439 0.033957347 0.012539217 0.16228206 0.37722376 0.23439951
0.05490283 -0.0056133796 -0.34765458 -0.099748164 -0.0661256 0.13581629 -0.22388987 0.25556248
0.11668854 -0.17712203 -0.31681147 -0.23171686 0.14734596 -0.21880601 -0.08983131 0.032908805
0.081294894 -0.008117286 -0.03180909 -0.053760245 0.33770037 -0.054645035 0.13551386 0.051080514
-0.0048783505 -0.14175256 0.25542644 0.14851603 0.43128234 0.286669 0.068742275 0.29013962
-0.23549086 -0.24539919 0.0756113 0.017758545 -0.038349085 -0.10530295 0.017814716 -0.019239625
0.15088591 -0.07284799 0.28540206 0.024707818 0.2064992 -0.14919585 -0.25255165 -0.049427357
0.34976643 -0.10911053 0.15868491 0.20876308 -0.006291929 -0.013947477 -0.18663883 0.24064676
0.08084274 0.06986714 -0.29828694 -0.083294466 -0.25932083 0.009885253 -0.16573706 0.04639296
0.122415476 0.15179984 0.20612064 -0.18515192 -0.11750517 0.22178102 -0.03340412 0.04488744
00000000: 5d54 04bc 7064 a3bd a8cd 813e c555 5c3e
00000010: ed47 1fbe 5027 3c3e e6b5 0a3d 0c8c 763b
00000020: e316 81be b482 b13d 1cbf 2d3d 925c ed3c
00000030: 6eef 733d ac1a d1bd e775 44be 590f a93d
00000040: 3872 883d 9264 943e ea09 563c df68 adb9
00000050: 9597 0cbe 6001 163d fd1f 33bd d120 67be
00000060: b336 803e 3a51 1ebe 6558 ab3d 0800 5ebe
00000070: 3fef 88bd f527 003d c8ae c5b9 fbd9 0f3e
00000080: 45d3 81be ab11 2abe 2c1b 33be 07a5 43be
00000090: 0f2d e0bd 35d4 523d af08 3e3e 1ab6 1a3c
000000a0: bf3b 3ebe f627 abbd 08c8 08be c3e2 35be
000000b0: 54ed 22be e509 3b3e 6e14 07be 3e6a dcbd
000000c0: 335b f23d 33ed 9e3e 7475 6e3e e6a6 df3c
000000d0: 5fe0 253e 363e 9abe 13dd f93d 1502 a43d
000000e0: 8bfd 51be 19cd 0cbe b775 c83d d9fc 623e
000000f0: 4a58 8cbd 545f 11be 5ebb 58bd bed8 70bd
00000100: 1d90 a2bd 6f13 4f3e 2c4b 07be 871a 39bd
00000110: fec3 c2bd 735e 08be 2916 943e 27d3 d13d
00000120: 9606 cd3d 8da1 a5bd 2b19 ba3d 5767 a13e
00000130: 6600 56be 7d05 993c 2076 243e 63b2 1cbe
00000140: b915 09be beb2 603d 885c bbbd 6855 07bc
00000150: 5edd d7be 9ae2 a9be 1654 353e 1362 11be
00000160: 653e 09be 763e 8b3e 6b21 e8bd 5329 503e
00000170: 7fb6 1bbe 18d3 143d d6e1 33be 2fa3 79be
00000180: 0d79 7c3e e78f c93e f560 9ebe 1834 b3bd
00000190: 7222 64be 4d39 ec3d 6bed 873d 583f 4e3e
000001a0: 3cfd a63d aed9 883e 320d 553e a46e 2d3e
000001b0: faef ff3d 7ec9 37be b9d4 cb3e 0c92 a5bc
000001c0: b832 bebd 0d7f 39be aeb1 4abd 1151 3bbd
000001d0: 2a63 043f eaaf 953e 781e 2abe 9946 b3be
000001e0: 82cb a43e 0f1d 263e 67f4 bdbd cc02 70be
000001f0: 730b f73e ae10 cdbe ad9a 3d3e dda5 98be
00000200: 920d 24be 3e3c aa3e c9dc f03d aa84 463e
00000210: b3b3 f3bd a375 233e b151 2fbc ada1 48be
00000220: baab 9bbe 00b6 aabd f260 d23d 8027 6ebd
00000230: 3459 83bd 4eb8 8e3c 56b9 9b3e ffd2 003e
00000240: fad1 fe3e e294 a9bd 1c51 e63c 41ab 3dbd
00000250: 6ece ebbd fee0 2bbe 5a01 32be 67dc 863d
00000260: 2dbf ed3e 88d7 8bbd 35c8 13be b4c6 0bbe
00000270: 4195 b13d 762c e03b 40ce d73d c9c5 ad3b
00000280: 5814 f7be 8470 cb3d 5bd4 b53c f140 3d3e
00000290: 398e 1d3e 7472 b5bd 9788 57be 330a fb3d
000002a0: 8edd cabe 93c3 5dbe 46a6 d2be 6e86 9ebe
000002b0: 5638 c7bd 66ea d7bd a9b7 723e 50ce ee39
000002c0: f05f 89be 6273 34bd 591c 24be dc16 0b3d
000002d0: 4a71 4d3c 452d 263e 7923 c13e 6d06 703e
000002e0: cae1 603d 71f0 b7bb c8ff b1be c448 ccbd
000002f0: dc6c 87bd 6d13 0b3e 6343 65be 16d9 823e
00000300: 67fa ee3d 7a5f 35be 1d35 a2be 2f47 6dbe
00000310: dce1 163e af0e 60be 7af9 b7bd 62cb 063d
00000320: f07d a63d 5dfe 04bc 404a 02bd b433 5cbd
00000330: 10e7 ac3e 79d3 5fbd 25c4 0a3e cd39 513d
00000340: 92da 9fbb 9527 11be 41c7 823e 9614 183e
00000350: 0ad1 dc3e 47c6 923e c0c8 8c3d 2e8d 943e
00000360: 8424 71be ed49 7bbe 19da 9a3d 5e7a 913c
00000370: ee13 1dbd 13a9 d7bd 2bf0 913c 6b9c 9dbc
00000380: d681 1a3e 5431 95bd 3820 923e 0d68 ca3c
00000390: 8774 533e ccc6 18be 734e 81be 5774 4abd
000003a0: 9614 b33e 5775 dfbd 4c7e 223e fdc5 553e
000003b0: 872c cebb f583 64bc 401e 3fbe 1b6c 763e
000003c0: e190 a53d 8116 8f3d 11b9 98be 4a96 aabd
000003d0: b3c5 84be c2f5 213c fab6 29be 8b06 3e3d
000003e0: f7b4 fa3d 6b71 1b3e 4a11 533e 7798 3dbe
000003f0: 8da6 f0bd 901a 633e c2d2 08bd e4db 373d

fc.bias f4 [4]
0.052880507 -0.37770504 0.076541156 0.21087012
00000000: 3b99 583d 8e62 c1be 9cc1 9c3d 56ee 573e
