GRU/model_years.pth (torch, 59077 bytes, 6 tensors)

gru.weight_ih_l0 f4 [192, 6]
0.14780031 0.03389893 -0.012241125 0.030200869 0.08927443 -0.11041965 0.13775721 0.04943043
-0.013304988 -0.015825747 0.13909146 0.04837463 0.051895842 0.039172694 0.13358833 0.064273804
0.055785883 -0.00528726 -0.21022701 -0.17105211 -0.01734401 0.089004636 0.019691713 -0.0803773
0.06323104 0.024381246 -0.10212656 -0.017915402 0.05932792 0.10765481 -0.14403874 -0.023851963
0.05724325 0.023225533 0.040932592 -0.13339306 -0.06366452 0.1224365 0.08643771 -0.10814976
0.00543164 -0.044272568 -0.073620334 0.0043337694 -0.014540906 0.017860837 0.0946002 -0.1256201
-0.09645732 0.051476695 -0.010310338 0.21271266 0.06501315 -0.011856559 0.054266434 0.008236587
0.05256412 0.056077477 -0.12762165 -0.04426254 -0.07310222 0.03773597 0.15272266 -0.15476947
-0.034782354 -0.026647225 0.21565427 -0.13852651 -0.092735484 0.05277125 -0.011297644 0.09185403
-0.07850609 -0.09862829 -0.03628333 -0.10776469 0.08178658 -0.0075485753 0.23496012 -0.03448897
-0.0617987 0.022412136 -0.012076347 -0.027089914 -0.11282431 -0.02402796 -0.08846523 0.07906729
0.15991148 -0.08087488 -0.17867255 0.057205148 0.04446514 0.014121198 -0.07419772 -0.03375399
0.018162722 -0.00673584 0.05776356 0.061802518 0.052911554 0.24864133 -0.16858397 0.06976042
-0.051827244 0.15525824 0.08005245 0.010827935 -0.01732875 -0.18841267 -0.019180033 -0.03613787
-0.13539594 -0.14390945 -0.17166896 0.10745445 0.021247765 -0.071819656 -0.09411159 -0.037100863
-0.17944191 -0.20789023 0.041708235 -0.09477612 -0.03477857 0.009513654 0.15143707 0.103116415
0.06296373 -0.037294276 0.14757384 -0.11055729 -0.03379601 -0.05556127 -0.066624716 0.147502
0.05127059 0.09548035 0.05331914 0.026475497 -0.14257425 -0.04609516 0.111969076 -0.015084983
-0.08884486 -0.012483552 -0.0056985687 -0.20163712 -0.033428468 0.0033765412 -0.11151722 0.098941945
0.04459413 -0.1512234 -0.072921194 -0.044898987 0.12907085 0.024124937 -0.0045175003 -0.088352166
-0.0949292 -0.12688884 -0.024584644 -0.0076354505 -0.1729011 -0.15643021 0.15164936 -0.055666022
-0.051725063 -0.036000896 0.033323765 -0.08148377 0.11824147 -0.011520917 0.056438178 0.041189827
-0.14038783 -0.012123456 0.08600591 0.023000913 -0.08334213 0.045586478 0.13881749 -0.05688013
0.03938081 0.00655828 -0.05324242 -0.054592896 -0.12024407 -0.1531313 0.023709787 0.13500573
-0.16119473 0.035077494 0.038145434 -0.12717658 -0.017047167 -0.13306583 0.07968807 0.05882422
0.01678925 0.05630148 0.10800018 -0.111973114 0.098554514 0.090669125 -0.0996349 -0.12958536
0.008739311 0.17579798 0.12853435 -0.075822815 -0.105546035 0.07955842 -0.001503797 0.052458283
0.104381405 -0.07678103 -0.019759802 -0.06477465 -0.0032988451 -0.14263369 -0.07032902 0.07614657
0.08841375 0.10666172 -0.13517429 -0.002426885 -0.07778929 -0.14038956 0.08267675 0.071328536
0.026660822 0.0983793 0.056934472 -0.038100693 0.19734876 0.093805134 0.017297339 0.09682891
0.037961215 0.056642458 -0.16610913 -0.054694965 -0.10418693 0.035592288 0.07699133 -0.049655527
0.0018888676 -0.19398907 -0.12678516 -0.062266562 0.08278871 -0.035118103 -0.010807952 0.035351805
00000000: f758 173e 9bd9 0a3d 008f 48bc d067 f73c
00000010: 83d5 b63d b323 e2bd 3a10 0d3e 9077 4a3d
00000020: 2afd 59bc ffa4 81bc fe6d 0e3e 7a24 463d
00000030: bc90 543d 8c73 203d 61cb 083e fca1 833d
00000040: bd7f 643d c040 adbb c045 57be 4928 2fbe
00000050: 0615 8ebc 1048 b63d 8450 a13c db9c a4bd
00000060: 477f 813d 2ebb c73c bb27 d1bd 52c3 92bc
00000070: d501 733d 207a dc3d e47e 13be 3165 c3bc
00000080: e677 6a3d 7943 be3c efa8 273d 3198 08be
00000090: 8b62 82bd fdbf fa3d 4106 b13d 9f7d ddbd
000000a0: e6fb b13b 2757 35bd 42c6 96bd 4b02 8e3b
000000b0: fb3c 6ebc e450 923c c0bd c13d 8ea2 00be
000000c0: 6a8b c5bd 3ad9 523d b1ec 28bc 59d1 593e
000000d0: 9d25 853d 0342 42bc 7b46 5e3d c0f2 063c
000000e0: 7a4d 573d 7fb1 653d 40af 02be a34c 35bd
000000f0: 9eb6 95bd 0891 1a3d 5463 1c3e e37b 1ebe
00000100: f177 0ebd 484b dabc 79d4 5c3e e5d9 0dbe
00000110: 1aec bdbd ab26 583d c119 39bc f71d bc3d
00000120: cdc7 a0bd a1fd c9bd d49d 14bd bcb3 dcbd
00000130: b97f a73d 0a5a f7bb 6399 703e 4e44 0dbd
00000140: a220 7dbd a899 b73c dfdb 45bc abeb ddbc
00000150: 6f10 e7bd 49d6 c4bc 422d b5bd 08ee a13d
00000160: d6bf 233e bba1 a5bd f0f5 36be f24f 6a3d
00000170: 1421 363d 995c 673c f9f4 97bd a041 0abd
00000180: fdc9 943c 52b8 dcbb 7c99 6c3d a324 7d3d
00000190: c9b9 583d d59b 7e3e 47a1 2cbe 8dde 8e3d
000001a0: ce48 54bd 04fc 1e3e 8af2 a33d a767 313c
000001b0: 06f5 8dbc 40ef 40be 721f 9dbc 4e05 14bd
000001c0: 3ca5 0abe 005d 13be fdc9 2fbe 1411 dc3d
000001d0: cb0f ae3c 2f16 93bd 94bd c0bd 13f7 17bd
000001e0: 9fbf 37be 2de1 54be 41d6 2a3d fb19 c2bd
000001f0: f973 0ebd 28df 1b3c 5212 1b3e b32e d33d
00000200: 21f3 803d e2c1 18bd 991d 173e dc6b e2bd
00000210: af6d 0abd 3794 63bd 8a72 88bd c40a 173e
00000220: 1c01 523d 348b c33d 2c65 5a3d 24e3 d83c
00000230: fcfe 11be 47ce 3cbd 0b50 e53d 0127 77bc
00000240: 4bf4 b5bd d087 4cbc 0fbb babb f679 4ebe
00000250: 4aec 08bd f648 5d3b 2463 e4bd 13a2 ca3d
00000260: 56a8 363d 4fda 1abe b557 95bd 00e8 37bd
00000270: 262b 043e a9a1 c53c 8a07 94bb fbf1 b4bd
00000280: 3e6a c2bd 26ef 01be bc65 c9bc cd32 fabb
00000290: fc0c 31be 3e2f 20be f849 1b3e 0e02 64bd
000002a0: a9dd 53bd ad75 13bd 807e 083d f6e0 a6bd
000002b0: 9528 f23d 3ac2 3cbc b82b 673d aab6 283d
000002c0: d4c1 0fbe 76a1 46bc de23 b03d 696c bc3c
000002d0: 47af aabd e3b8 3a3d 2c26 0e3e 24fb 68bd
000002e0: c64d 213d d7e6 d63b b914 5abd cd9c 5fbd
000002f0: 8642 f6bd 74ce 1cbe 073b c23c f13e 0a3e
00000300: 3b10 25be 6bad 0f3d 633e 1c3d 943a 02be
00000310: 80a6 8bbc 6942 08be 8033 a33d aaf1 703d
00000320: 9c89 893c 619c 663d 332f dd3d 2952 e5bd
00000330: f3d6 c93d bcb0 b93d 620d ccbd 06b2 04be
00000340: 542f 0f3c 6304 343e 829e 033e fe48 9bbd
00000350: 8528 d8bd 86ef a23d 0e1b c5ba 7fde 563d
00000360: ebc5 d53d 5f3f 9dbd 4fdf a1bc 92a8 84bd
00000370: 7031 58bb 910e 12be a908 90bd bcf2 9b3d
00000380: 4512 b53d 7671 da3d 216b 0abe 600c 1fbb
00000390: fe4f 9fbd 48c2 0fbe 6e52 a93d b214 923d
000003a0: cc67 da3c 167b c93d 1f34 693d 790f 1cbd
000003b0: cb15 4a3e e81c c03d 26b3 8d3c 3c4e c63d
000003c0: 387d 1b3d ec01 683d 8318 2abe d407 60bd
000003d0: f55f d5bd 38c9 113d a1ad 9d3d 9863 4bbd
000003e0: e193 f73a 12a5 46be f8d3 01be 390b 7fbd
000003f0: 218d a93d 00d8 0fbd d613 31bc 0ecd 103d

gru.weight_hh_l0 f4 [192, 64]
-0.06741405 -0.021926653 -0.50110865 0.029336985 0.23151496 -0.32005835 -0.24567488 0.13753745
0.10739641 0.07009237 0.0068132766 -0.03980694 -0.21641493 -0.08462007 0.16550575 -0.049297247
-0.08357345 0.075813375 -0.1631028 0.17062896 0.23715398 0.11406073 -0.0057738353 -0.038343262
0.0045730374 0.18552494 -0.15101022 0.114072286 0.090497 0.09521604 -0.26457852 -0.15343456
-0.31986535 0.2421303 -0.20766918 -0.2673613 -0.0030600976 -0.0626006 -0.08702142 -0.42107037
0.30472782 -0.010640012 0.23646426 -0.1338725 0.10459974 -0.23730461 0.048459735 -0.050300416
0.2779118 -0.22797321 -0.056639723 -0.20336045 0.023425365 -0.30028766 0.089299 0.05739046
0.06874265 0.18044347 0.02905244 0.37065002 -0.053400364 0.14067906 0.06676275 0.043009575
0.12028801 -0.30440137 0.21529658 0.4769871 -0.31972712 0.5337386 0.24670202 -0.22985248
0.2224744 -0.041305866 -0.50794375 0.4195587 0.37818536 0.08074175 -0.30403507 -0.09135543
-0.25444362 0.16965505 -0.37693894 0.047975503 0.058459725 0.21027079 0.11199167 -0.029277023
0.058973998 -0.52490777 0.37117445 0.0008954556 0.1488756 0.27205232 -0.15708485 -0.024054147
-0.2877791 0.1224114 0.038187753 0.10858311 -0.074710585 0.32439265 -0.02720858 0.07290434
-0.05497685 -0.14498918 0.2090099 -0.22579415 -0.089480035 -0.17952122 0.05058201 0.08960223
0.20316571 -0.20286103 -0.25112236 0.5765226 0.049098488 -0.32643878 -0.12068225 -0.12904303
-0.1228061 0.060074348 0.44181824 -0.17952575 0.1601571 -0.07826957 -0.1109233 -0.099117145
0.3028261 -0.4639292 0.0633247 0.19413882 -0.3233695 -0.1282295 0.101297855 -0.054301772
0.2726496 0.001105372 -0.107991 0.047855422 -0.14606099 0.4401024 -0.2010173 0.07613954
-0.0762309 -0.2626506 0.18440877 0.3166455 0.08792754 -0.08610168 0.090136 0.123226576
0.13310584 0.017794322 0.040116783 -0.1001356 -0.08669828 0.05367522 0.32125023 -0.17332229
-0.34553185 0.17821616 0.17666666 0.14179394 0.064968884 0.11101437 -0.050468236 -0.041215297
0.0302865 0.22592202 -0.10838907 -0.27167767 0.35360476 -0.038628954 0.2242288 -0.23202421
-0.002258216 -0.12140652 0.35492247 0.3091091 -0.1090385 0.30414337 0.13126272 0.2482301
0.13627256 0.13982005 -0.121092245 0.24166954 -0.15444525 0.040413395 -0.28422967 0.037177544
-0.10049136 -0.3167772 -0.01740212 -0.12254572 -0.026911706 -0.36693752 -0.1021475 -0.01714127
0.055465918 0.0056962003 0.009975315 -0.23899195 0.0785271 0.033879053 0.016399272 0.050461352
-0.11466438 -0.1485453 0.093722716 -0.2385688 0.43608445 0.009194268 -0.055179313 0.095738314
0.19963944 0.2759641 0.00031098467 -0.024204884 -0.03700005 0.043828454 0.18976434 0.118063815
-0.051619597 0.32614264 -0.1608259 0.3541162 0.2135595 -0.25179118 0.095773265 0.43523073
0.2386151 -0.13373151 -0.15654185 0.228644 0.014319589 -0.04767402 -0.3081174 -0.20064203
0.093434796 -0.12810794 -0.011928412 -0.19477521 0.30688947 -0.14415067 -0.42933604 0.28423935
0.07817406 0.02850639 0.09869228 0.3974794 0.096020214 0.13924995 -0.032415822 0.24833016
00000000: 6110 8abd 869f b3bc a848 00bf 1e54 f03c
00000010: 4212 6d3e b0de a3be 3292 7bbe 9ed6 0c3e
00000020: a6f2 db3d 978c 8f3d e841 df3b 9a0c 23bd
00000030: e09b 5dbe 4a4d adbd 577a 293e e9eb 49bd
00000040: 8f28 abbd 0b44 9b3d 6c04 27be 5cb9 2e3e
00000050: 7ed8 723e ac98 e93d 7132 bdbb d30d 1dbd
00000060: 6bd9 953b 40fa 3d3e 6ca2 1abe bb9e e93d
00000070: 7e56 b93d a100 c33d d676 87be f31d 1dbe
00000080: 64c5 a3be 01f1 773e 3ba7 54be 95e3 88be
00000090: eb8b 48bb be34 80bd 4938 b2bd 8996 d7be
000000a0: 4905 9c3e 7253 2ebc b023 723e df15 09be
000000b0: 6338 d63d fbff 72be b77d 463d cf07 4ebd
000000c0: 754a 8e3e cf71 69be 0eff 67bd b93d 50be
000000d0: 8de6 bf3c 4ebf 99be 65e2 b63d 4212 6b3d
000000e0: f2c8 8c3d 2cc6 383e 62ff ed3c d7c5 bd3e
000000f0: 57ba 5abd 2c0e 103e e9ba 883d cf2a 303d
00000100: 8f59 f63d 7fda 9bbe b576 5c3e a737 f43e
00000110: 46b3 a3be 18a3 083f 749f 7c3e 735e 6bbe
00000120: 54d0 633e 5730 29bd 9a08 02bf 66d0 d63e
00000130: 83a1 c13e ee5b a53d 7caa 9bbe 8e18 bbbd
00000140: 6f46 82be 0eba 2d3e 24fe c0be f681 443d
00000150: 7773 6f3d 3a51 573e e45b e53d 5ed6 efbc
00000160: b88e 713d 5b60 06bf 940a be3e 02bd 6a3a
00000170: d872 183e 714a 8b3e dada 20be 340d c5bc
00000180: c857 93be d4b2 fa3d c36a 1c3d d260 de3d
00000190: dd01 99bd cb16 a63e 87e4 debc df4e 953d
000001a0: 682f 61bd 0b78 14be b106 563e 9536 67be
000001b0: 4f41 b7bd 69d4 37be 152f 4f3d 6081 b73d
000001c0: ac0a 503e cdba 4fbe 1c93 80be fc96 133f
000001d0: 7f1b 493d fc22 a7be 4128 f7bd db23 04be
000001e0: c481 fbbd 8510 763d 0036 e23e 99d5 37be
000001f0: 3900 243e cc4b a0bd c12b e3bd eefd cabd
00000200: 060c 9b3e 2188 edbe 61b0 813d 54cc 463e
00000210: b090 a5be 984e 03be 4075 cf3d 896b 5ebd
00000220: ba98 8b3e 21e2 903a 632a ddbd 0c04 443d
00000230: 0391 15be 1a55 e13e 7bd7 4dbe 0cef 9b3d
00000240: f21e 9cbd 247a 86be a7d5 3c3e 5c1f a23e
00000250: 5b13 b43d 1456 b0bd 3999 b83d 375e fc3d
00000260: e64c 083e 66c5 913c 7f51 243d e513 cdbd
00000270: de8e b1bd 8cda 5b3d e97a a43e 667b 31be
00000280: 8de9 b0be 4c7e 363e 1be8 343e 6e32 113e
00000290: 680e 853d 815b e33d c8b7 4ebd 5fd1 28bd
000002a0: 651b f83c 1a58 673e 17fb ddbd 5619 8bbe
000002b0: af0b b53e 6539 1ebd 3c9c 653e c197 6dbe
000002c0: 94fe 13bb fba3 f8bd 66b8 b53e 8c43 9e3e
000002d0: 944f dfbd aeb8 9b3e bc69 063e 0830 7e3e
000002e0: 098b 0b3e fd2c 0f3e 36ff f7bd 3878 773e
000002f0: e526 1ebe 8488 253d 8d86 91be 7b47 183d
00000300: 6ace cdbd 9f30 a2be e48e 8ebc 40f9 fabd
00000310: f075 dcbc 3cdf bbbe b532 d1bd d96b 8cbc
00000320: 3b30 633d 31a7 ba3b 816f 233c 4eba 74be
00000330: d1d2 a03d c3c4 0a3d c457 863c 90b0 4e3d
00000340: 29d5 eabd 421c 18be b2f1 bf3d 614b 74be
00000350: 7646 df3e 8ea3 163c b403 62bd 7312 c43d
00000360: 486e 4c3e 2b4b 8d3e a80b a339 5249 c6bc
00000370: 5d8d 17bd 7785 333d 9551 423e 71cb f13d
00000380: 126f 53bd 2bfc a63e 8baf 24be b84e b53e
00000390: 57af 5a3e c6ea 80be c624 c43d 90d6 de3e
000003a0: 8457 743e eaf0 08be 824c 20be a721 6a3e
000003b0: b69c 6a3c d545 43bd 90c1 9dbe 1b75 4dbe
000003c0: be5a bf3d ba2e 03be 636f 43bc 2773 47be
000003d0: 9e20 9d3e 3c9c 13be efd1 dbbe d287 913e
000003e0: b919 a03d 3c86 e93c 2e1f ca3d 6b82 cb3e
000003f0: 3fa6 c43d 8a97 0e3e 74c6 04bd 434a 7e3e

gru.bias_ih_l0 f4 [192]
0.00046402134 -0.32795233 -0.14162661 -0.087876774 -0.035303984 0.06295369 -0.060250554 -0.03680943
-0.23939131 -0.07741417 -0.0592986 -0.10765922 -0.067873694 -0.008541971 0.001771388 -0.14247015
0.03409745 0.069330834 -0.050372716 -0.12993012 -0.15858045 -0.17048475 0.0018467731 0.0026638692
0.03735993 -0.0007805149 -0.28170368 -0.107773386 -0.114874735 -0.17418246 -0.22364865 0.07372466
-0.11421563 -0.02290578 -0.08117268 -0.021196693 -0.27527788 -0.056781024 -0.079776905 0.05704137
-0.2530731 0.058304477 -0.091871955 -0.091920115 0.02073538 -0.04303456 0.08535347 -0.12714076
-0.24681991 0.011952913 -0.13530006 0.048339624 0.024967097 -0.15392911 -0.0795252 -0.19506232
-0.17287152 0.08947994 -0.020636903 -0.20115927 -0.06351498 -0.013201976 0.16494311 0.020390727
0.364163 0.28351548 0.22666408 0.31957227 0.3773851 0.3006463 0.3217073 0.2699841
0.36016893 0.44358382 0.37615573 0.38483673 0.47401586 0.3852734 0.38818082 0.2927844
0.4137016 0.20736739 0.23149107 0.2586129 0.40768874 0.107426055 0.37422478 0.3085313
0.5510098 0.37864336 0.30998546 0.59190667 0.43401298 0.5015384 0.5016743 0.48242137
0.28371868 0.31631625 0.45175788 0.41249177 0.23199709 0.27634373 0.36004606 0.15069571
0.43546388 0.3353868 0.45073646 0.4803342 0.565425 0.42247155 0.18615194 0.14540881
0.29841912 0.53629035 0.51899016 0.4372797 0.5804794 0.22588906 0.15393881 0.65751636
0.4263525 0.3563471 0.4604465 0.5189423 0.63627267 0.20165055 0.7348243 0.491822
-0.14768216 0.030866845 0.024611002 0.035897013 0.10051646 -0.13713217 -0.06581455 -0.0149487
0.08464749 -0.008147704 0.19436184 -0.12984146 -0.070924714 -0.11189145 0.11712517 -0.21545129
-0.0022481864 0.043421507 0.04357954 -0.11130105 -0.04222407 -0.02598342 -0.043416426 -0.107974544
-0.10295458 -0.04972613 -0.044816762 -0.1056594 -0.13263206 -0.048634786 0.009050139 -0.052077424
0.15831609 -0.14747739 0.031640053 0.09869803 -0.08140305 -0.071125634 -0.092018 0.11078149
-0.22259682 0.18701601 0.08426175 -0.05380858 0.015676802 0.104811974 -0.09773317 -0.011695612
-0.08176296 -0.18185565 -0.05719869 -0.07233628 -0.10792797 -0.046673976 -0.00068213005 -0.07127035
-0.054820158 -0.09216218 -0.13024104 0.06885396 -0.0746853 0.23494971 0.00517955 -0.17595556
00000000: e447 f339 5ee9 a7be 9106 11be bdf8 b3bd
00000010: e99a 10bd dded 803d 49c9 76bd 7cc5 16bd
00000020: ff22 75be 528b 9ebd 17e3 72bd 707c dcbd
00000030: 5d01 8bbd a0f3 0bbc eb2d e83a b2e3 11be
00000040: c5a9 0b3d 53fd 8d3d 9f53 4ebd 670c 05be
00000050: ea62 22be 8e93 2ebe 6c0f f23a 4f94 2e3b
00000060: ba06 193d 789b 4cba 773b 90be 4bb8 dcbd
00000070: 7243 ebbd e35c 32be 2704 65be f4fc 963d
00000080: e2e9 e9bd e7a4 bbbc dd3d a6bd b0a4 adbc
00000090: 39f1 8cbe 3893 68bd 1362 a3bd 36a4 693d
000000a0: cc92 81be add0 6e3d 5d27 bcbd 9d40 bcbd
000000b0: 3edd a93c 0245 30bd cdcd ae3d 3031 02be
000000c0: 5cbe 7cbe 27d6 433c 198c 0abe c5ff 453d
000000d0: cc87 cc3c 989f 1dbe 1cde a2bd 6bbe 47be
000000e0: 3b05 31be 4241 b73d b90e a9bc b2fc 4dbe
000000f0: 2414 82bd 1a4d 58bc d9e6 283e 740a a73c
00000100: 9373 ba3e f128 913e a11a 683e fa9e a33e
00000110: 9f38 c13e 50ee 993e d2b6 a43e 5b3b 8a3e
00000120: 1068 b83e 6b1d e33e 7c97 c03e 5209 c53e
00000130: 35b2 f23e 8e42 c53e a3bf c63e d6e7 953e
00000140: b2d0 d33e 1e58 543e ff0b 6d3e e968 843e
00000150: 94bc d03e 3102 dc3d 649a bf3e d1f7 9d3e
00000160: fa0e 0d3f 8bdd c13e 6ab6 9e3e 3287 173f
00000170: f336 de3e d264 003f ba6d 003f efff f63e
00000180: 9343 913e 34f4 a13e cf4c e73e 1f32 d33e
00000190: a590 6d3e ed7c 8d3e f557 b83e fa4f 1a3e
000001a0: 1ff5 de3e d2b7 ab3e eec6 e63e 5dee f53e
000001b0: b1bf 103f 314e d83e 9d9e 3e3e 0ce6 143e
000001c0: 64ca 983e 534a 093f 8adc 043f 20e3 df3e
000001d0: 4c9a 143f 764f 673e 23a2 1d3e fe52 283f
000001e0: e04a da3e 2173 b63e a5bf eb3e 67d9 043f
000001f0: c4e2 223f 7b7d 4e3e 721d 3c3f 18d0 fb3e
00000200: fe39 17be 77dc fc3c 039d c93c bf08 133d
00000210: 93db cd3d 606c 0cbe c7c9 86bd 64eb 74bc
00000220: aa5b ad3d f37d 05bc ca06 473e 29f5 04be
00000230: fa40 91bd 5827 e5bd 52df ef3d 439f 5cbe
00000240: 4f56 13bb c0da 313d 7680 323d cef1 e3bd
00000250: 25f3 2cbd 2edb d4bc 6cd5 31bd c221 ddbd
00000260: dad9 d2bd a0ad 4bbd c891 37bd f563 d8bd
00000270: b3d0 07be 4535 47bd 0947 143c 234f 55bd
00000280: 9d1d 223e 5004 17be 0099 013d 3122 ca3d
00000290: a4b6 a6bd 51aa 91bd ef73 bcbd 68e1 e23d
000002a0: 6cf0 63be 2081 3f3e 6d91 ac3d 6366 5cbd
000002b0: a36c 803c a9a7 d63d 5428 c8bd f49e 3fbc
000002c0: 5773 a7bd 5e38 3abe 2c49 6abd 0b25 94bd
000002d0: 5709 ddbd 362d 3fbd f9d0 32ba 30f6 91bd
000002e0: 1a8b 60bd 86bf bcbd e85d 05be 4e03 8d3d
000002f0: 9bf4 98bd a896 703e 37b9 a93b b22d 34be

gru.bias_hh_l0 f4 [192]
-0.0095171835 -0.22528183 -0.08242607 -0.06877519 -0.090776175 -0.069778316 -0.08250671 -0.04201243
-0.2634953 0.006484744 0.0592754 -0.20386292 -0.09739811 -0.034468677 -0.14711387 -0.13270615
0.009573655 -0.12514624 -0.08459974 0.005458192 -0.20613855 0.0018899232 -0.15006489 -0.06802457
-0.01905213 -0.14019433 -0.3111108 -0.12791707 -0.17683311 -0.15251696 -0.053123668 -0.1583855
0.018331325 -0.12638226 -0.098247565 -0.11162024 -0.2456938 -0.16186437 -0.12145227 -0.10077285
-0.09714592 -0.16622798 -0.12097111 -0.13710652 -0.06778395 -0.12731765 0.044684377 -0.055452988
-0.15181528 -0.0017205204 -0.024713714 0.03319669 -0.009473468 -0.20558864 -0.19484046 -0.31154713
0.028318517 -0.048877124 -0.12553461 -0.27538687 -0.014457805 -0.116833486 -0.012943535 -0.027881298
0.1581497 0.33908403 0.3344077 0.32899264 0.27843243 0.18303666 0.37859204 0.25908038
0.26503244 0.33934218 0.39013812 0.2528633 0.47638926 0.5773004 0.5007634 0.2297129
0.42965657 0.27031285 0.28743514 0.41814744 0.36105382 0.101972386 0.57264394 0.1352114
0.5006157 0.40316194 0.3797979 0.6755752 0.62650216 0.45097336 0.42748967 0.51739436
0.3485899 0.3422566 0.372999 0.5090371 0.18596302 0.47262117 0.25232953 0.1514841
0.50215745 0.41640902 0.4492372 0.606083 0.5506879 0.3023985 0.29246196 0.3113663
0.27032262 0.42292523 0.5749319 0.5221817 0.44073844 0.16533318 0.11050911 0.6083139
0.30167177 0.48331 0.34602714 0.33519256 0.46260753 0.21421076 0.54258525 0.62437946
-0.16383411 0.019928763 -0.03912647 -0.06277431 -0.009415237 -0.0381444 -0.08036173 0.15729801
-0.15857577 -0.02959239 0.18818724 -0.034596913 0.062904775 -0.148986 0.17294514 -0.102046
0.10242611 -0.06323894 0.108880654 -0.13157664 -0.11128548 -0.15534568 -0.14089392 -0.017583521
-0.048845194 0.049479015 -0.02732281 0.042774856 -0.029166512 -0.048384953 -0.087991394 -0.09623833
0.015675286 0.06939712 -0.11836285 -0.067449465 0.12274502 0.023272801 -0.016641151 -0.03331024
0.018047933 -0.0590356 0.018010978 0.14104784 -0.06374226 0.030032715 -0.004176508 0.08245076
-0.08950525 -0.12541285 -0.042288028 -0.12462594 -0.110080205 -0.017521275 0.103625424 0.03649329
-0.0670682 0.10796168 -0.18886682 0.041367672 -0.05266553 0.15102534 0.062196635 -0.26020122
00000000: f6ed 1bbc 48b0 66be 00cf a8bd 02da 8cbd
00000010: dce8 b9bd efe7 8ebd 47f9 a8bd 3a15 2cbd
00000020: dbe8 86be fa7d d43b c3ca 723d 71c1 50be
00000030: a978 c7bd 072f 0dbd 05a5 16be 1fe4 07be
00000040: d2da 1c3c 5626 00be a142 adbd a2da b23b
00000050: fc15 53be 4db7 f73a 9caa 19be 7750 8bbd
00000060: 3613 9cbc 1a8f 0fbe ea49 9fbe b1fc 02be
00000070: bd13 35be 682d 1cbe 3498 59bd cf2f 22be
00000080: 932b 963c 5a6a 01be 0536 c9bd 2799 e4bd
00000090: 2897 7bbe c6bf 25be f8bb f8bd ff61 cebd
000000a0: 71f4 c6bd ab37 2abe b4bf f7bd a765 0cbe
000000b0: 50d2 8abd 8f5f 02be f706 373d ac22 63bd
000000c0: 7775 1bbe 1683 e1ba 6a74 cabc 41f9 073d
000000d0: 9b36 1bbc d485 52be 4284 47be 1b83 9fbe
000000e0: 3cfc e73c 6133 48bd 258c 00be 82ff 8cbe
000000f0: 6ee0 6cbc 6546 efbd 1f11 54bc 5267 e4bc
00000100: fff1 213e 6c9c ad3e 7c37 ab3e b971 a83e
00000110: b28e 8e3e f66d 3b3e d1d6 c13e 2fa6 843e
00000120: 55b2 873e 42be ad3e 2fc0 c73e 4c77 813e
00000130: 4be9 f33e f6c9 133f 0832 003f dc39 6b3e
00000140: f2fb db3e 7266 8a3e b32a 933e 6c17 d63e
00000150: 0cdc b83e e6d6 d03d cb98 123f db74 0a3e
00000160: 5a28 003f 3e6b ce3e df74 c23e 7ff2 2c3f
00000170: 7262 203f fbe5 e63e eddf da3e f573 043f
00000180: 607a b23e 423c af3e baf9 be3e 4150 023f
00000190: 176d 3e3e 67fb f13e 5631 813e a61e 1b3e
000001a0: 648d 003f 9033 d53e 6b02 e63e 4128 1b3f
000001b0: e2f9 0c3f fad3 9a3e 93bd 953e 676b 9f3e
000001c0: ba67 8a3e a889 d83e bd2e 133f b3ad 053f
000001d0: 78a8 e13e 1a4d 293e 9a52 e23d 76ba 1b3f
000001e0: b974 9a3e 6974 f73e 782a b13e 5c9e ab3e
000001f0: e5da ec3e 115a 5b3e dee6 0a3f 55d7 1f3f
00000200: 21c4 27be a541 a33c 1443 20bd d18f 80bd
00000210: 5e42 1abc 4d3d 1cbd b194 a4bd bb12 213e
00000220: b061 22be bd6b f2bc 28b4 403e 7eb5 0dbd
00000230: 38d4 803d c98f 18be 8818 313e 7efd d0bd
00000240: c8c4 d13d 6b83 81bd d2fc de3d 07bc 06be
00000250: a4e9 e3bd f012 1fbe 7f46 10be 510b 90bc
00000260: e611 48bd 82aa 4a3d 16d4 dfbc b034 2f3d
00000270: 9cee eebc 4d2f 46bd d534 b4bd 9a18 c5bd
00000280: 7569 803c 1420 8e3d 3968 f2bd f222 8abd
00000290: be61 fb3d 9aa6 be3c 0653 88bc 5170 08bd
000002a0: 42d9 933c 50cf 71bd c28b 933c d86e 103e
000002b0: 4d8b 82bd 2b07 f63c 17db 88bb f2db a83d
000002c0: 874e b7bd 3a6c 00be 3636 2dbd e33b ffbd
000002d0: bb71 e1bd c788 8fbc 9139 d43d fd79 153d
000002e0: 0d5b 89bd 031b dd3d 4e66 41be 2671 293d
000002f0: d0b7 57bd 63a6 1a3e e6c1 7e3d 1839 85be

fc.weight f4 [3, 64]
-0.17957023 -0.041370157 -0.30104366 0.042817052 0.010570745 -0.019065082 0.05373466 0.14332654
-0.14968365 0.43289855 0.10303643 -0.063189626 0.09879833 0.09690217 0.12523936 -0.052641068
-0.122134544 -0.06357102 0.09187053 0.31627718 0.085658416 -0.09454073 -0.087954625 0.18664554
0.35676724 -0.17108811 -0.041537136 -0.09308173 0.109377995 0.042325504 0.07311468 -0.014173539
-0.28338283 -0.06526871 0.07255276 0.13553634 0.09281601 0.13082553 0.07761821 0.2555472
-0.017516376 0.06914798 0.048501022 -0.24615946 -0.31710762 0.20369045 -0.3845223 0.03444383
0.018817274 -0.16054776 0.024304528 -0.10041088 0.101272464 -0.1559472 -0.215146 0.13761358
0.088690974 -0.069795005 0.085202225 0.32785267 0.14593118 -0.15180232 -0.0782811 0.22189446
0.0605591 -0.33579993 0.24703965 -0.0779505 -0.17533113 0.10244806 0.093372695 0.113751225
0.22161455 -0.12951273 0.061703917 0.01826317 -0.004817257 -0.008455977 0.056948695 -0.011962197
0.18403403 0.13559726 0.039891094 -0.22075725 0.15817288 0.09095088 -0.12943444 -0.17171142
-0.050531246 0.05342 0.060114738 -0.05108293 -0.058952577 0.21025866 0.023766117 -0.22403888
0.084620826 0.2676994 0.14946084 0.03484012 -0.063072674 0.16118963 -0.1219476 0.024176603
-0.14068797 0.029082825 -0.2388524 0.18433076 0.16159113 -0.19512148 0.10184335 -0.26479903
-0.099997215 0.118582346 0.15160027 0.027570648 -0.14914712 -0.04066417 0.06310741 0.20816642
-0.17960267 0.06431358 0.16282874 -0.1393312 0.35375938 0.1508928 -0.012705856 -0.24942611
-0.018991334 0.2785943 0.2110561 -0.20185441 0.0071737384 -0.024260236 -0.13723515 -0.08532428
-0.062148064 -0.29836065 -0.09513887 0.109751165 -0.15250972 0.0038382174 -0.14306115 0.032376535
-0.10977661 -0.061551683 -0.17854843 0.1347686 -0.2501174 -0.1017196 0.20097226 0.028636243
-0.10288506 0.04629859 -0.075228296 0.18360761 -0.04780965 -0.17131683 -0.06248487 0.22568776
-0.045552827 -0.12077539 -0.012209549 -0.34277734 0.005696877 -0.13830289 0.012500394 -0.22862932
-0.021376759 -0.13896148 0.08014116 0.13533008 0.16800822 -0.22859283 -0.0108219525 0.05561445
0.06813587 -0.057434697 -0.2330945 0.07004857 -0.07076694 0.21206075 0.22241895 -0.34056702
0.11674594 0.08294756 -0.11442223 -0.025436169 -0.29652488 0.001857827 0.06816356 -0.0768898
00000000: 42e1 37be c173 29bd 6522 9abe ef60 2f3d
00000010: eb30 2d3c 602e 9cbc e018 5c3d 31c4 123e
00000020: ac46 19be e1a4 dd3e c404 d33d 9069 81bd
00000030: c756 ca3d a574 c63d bf3e 003e 299e 57bd
00000040: ad21 fabd 8631 82bd 9e26 bc3d 15ef a13e
00000050: ae6d af3d 929e c1bd 8e21 b4bd 0220 3f3e
00000060: 32aa b63e b931 2fbe d822 2abd a2a1 bebd
00000070: 9201 e03d 825d 2d3d 26bd 953d 2238 68bc
00000080: 8e17 91be 9aab 85bd 8b96 943d 0aca 0a3e
00000090: 5216 be3d 21f7 053e 4cf6 9e3d 15d7 823e
000000a0: 817e 8fbc 759d 8d3d 02a9 463d 3a11 7cbe
000000b0: ee5b a2be 3b94 503e 1be0 c4be f914 0d3d
000000c0: af26 9a3c a266 24be 4a1a c73c 38a4 cdbd
000000d0: f067 cf3d 9fb0 1fbe 3c4f 5cbe 93ea 0c3e
000000e0: 9da3 b53d aff0 8ebd 817e ae3d 4edc a73e
000000f0: fc6e 153e 1172 1bbe d751 a0bd 4d38 633e
00000100: d20c 783d f8ed abbe f6f7 7c3e 83a4 9fbd
00000110: 018a 33be 4ad0 d13d 2f3a bf3d 67f6 e83d
00000120: edee 623e fc9e 04be 3fbd 7c3d a59c 953c
00000130: 15da 9dbb f08a 0abc 0943 693d 17fd 43bc
00000140: 6b73 3c3e 02da 0a3e d864 233d 300e 62be
00000150: 12f8 213e 7444 ba3d 768a 04be 1ed5 2fbe
00000160: daf9 4ebd eece 5a3d df3a 763d 563c 51bd
00000170: 4278 71bd 0c4e 573e 29b1 c23c 736a 65be
00000180: af4d ad3d e50f 893e 430c 193e 83b4 0e3d
00000190: 3f2c 81bd e50e 253e aabf f9bd 030e c63c
000001a0: 8210 10be 1b3f ee3c b995 74be 34c1 3c3e
000001b0: 2578 253e edcd 47be 3f93 d03d bd93 87be
000001c0: 57cb ccbd 4ddb f23d 1a3d 1b3e d7db e13c
000001d0: 06ba 18be 798f 26bd 753e 813d 9429 553e
000001e0: c3e9 37be d7b6 833d 94bc 263e d7ac 0ebe
000001f0: f31f b53e a483 1a3e 392c 50bc 8f69 7fbe
00000200: b793 9bbc e9a3 8e3e 171f 583e ecb2 4ebe
00000210: ae11 eb3b 67bd c6bc 5f87 0cbe 7fbe aebd
00000220: f88e 7ebd bac2 98be 2bd8 c2bd 38c5 e03d
00000230: 822b 1cbe 9a8a 7b3b 9f7e 12be 429d 043d
00000240: 8fd2 e0bd 9e1d 7cbd 66d5 36be c800 0a3e
00000250: 630f 80be 5e52 d0bd accb 4d3e 8e96 ea3c
00000260: 67b5 d2bd 97a3 3d3d 4b11 9abd a203 3c3e
00000270: 0dd4 43bd ae6d 2fbe 23f0 7fbd b11a 673e
00000280: 9a95 3abd 1659 f7bd 8f0a 48bc 8380 afbe
00000290: deac ba3b 469f 0dbe 74ce 4c3c ce1d 6abe
000002a0: 501e afbc eb4b 0ebe 0c21 a43d f893 0a3e
000002b0: 590a 2c3e 3d14 6abe 8f4e 31bc facb 633d
000002c0: d28a 8b3d a540 6bbd 53b0 6ebe a075 8f3d
000002d0: 42ee 90bd 7426 593e cbc1 633e cd5e aebe
000002e0: 7f18 ef3d 69e0 a93d 3456 eabd 835f d0bc
000002f0: 1cd2 97be 5482 f33a 5699 8b3d 6678 9dbd

fc.bias f4 [3]
-0.166167 0.30483198 -0.15501292
00000000: af27 2abe f012 9c3e b5bb 1ebe
